{
  "transform_params" : {
    "input_1" : {
      "bias_a" : 0,
      "bias_g" : -1,
      "bias_r" : -1,
      "bias_b" : -1,
      "center_mean" : 0,
      "is_network_bgr" : 0,
      "scale" : 0.0078740157186985016
    }
  },
  "properties" : {

  },
  "analyses" : {

  },
  "format_version" : 200,
  "storage" : "model.espresso.weights",
  "layers" : [
    {
      "name" : "functional_1\/reflection_padding2d\/MirrorPad_pad",
      "weights" : {

      },
      "pad_pad_mode" : 0,
      "pad_t" : 3,
      "pad_r" : 3,
      "pad_b" : 3,
      "type" : "general_padding",
      "pad_fill_mode" : 2,
      "bottom" : "input_1",
      "pad_l" : 3,
      "debug_info" : "functional_1\/reflection_padding2d\/MirrorPad_pad",
      "pad_value" : 0,
      "top" : "functional_1\/reflection_padding2d\/MirrorPad_pad"
    },
    {
      "pad_r" : 0,
      "fused_relu" : 0,
      "fused_tanh" : 0,
      "debug_info" : "functional_1\/conv2d\/Conv2Dx",
      "pad_fill_mode" : 0,
      "pad_b" : 0,
      "pad_l" : 0,
      "top" : "functional_1\/conv2d\/Conv2Dx",
      "blob_weights" : 1,
      "K" : 3,
      "name" : "functional_1\/conv2d\/Conv2Dx",
      "has_batch_norm" : 0,
      "type" : "convolution",
      "n_groups" : 1,
      "pad_t" : 0,
      "has_biases" : 0,
      "C" : 64,
      "bottom" : "functional_1\/reflection_padding2d\/MirrorPad_pad",
      "weights" : {

      },
      "Nx" : 7,
      "pad_mode" : 0,
      "pad_value" : 0,
      "Ny" : 7,
      "n_parallel" : 1
    },
    {
      "axis_h" : 0,
      "axis_w" : 2,
      "bottom" : "functional_1\/conv2d\/Conv2Dx",
      "axis_k" : 1,
      "axis_n" : 3,
      "axis_seq" : 4,
      "weights" : {

      },
      "debug_info" : "functional_1\/conv2d\/Conv2D",
      "top" : "functional_1\/conv2d\/Conv2D",
      "type" : "transpose",
      "name" : "functional_1\/conv2d\/Conv2D"
    },
    {
      "top" : "functional_1\/conv2d\/BiasAdd\/ReadVariableOp",
      "w" : 64,
      "h" : 1,
      "name" : "functional_1\/conv2d\/BiasAdd\/ReadVariableOp",
      "nd_rank" : 1,
      "type" : "load_constant",
      "k" : 1,
      "bottom" : "",
      "debug_info" : "functional_1\/conv2d\/BiasAdd\/ReadVariableOp",
      "n" : 1,
      "weights" : {

      },
      "constant_blob" : 3
    },
    {
      "bottom" : "functional_1\/conv2d\/Conv2D,functional_1\/conv2d\/BiasAdd\/ReadVariableOp",
      "alpha" : 1,
      "operation" : 0,
      "weights" : {

      },
      "fused_relu" : 0,
      "debug_info" : "functional_1\/conv2d\/BiasAdd",
      "nd_mode" : true,
      "top" : "functional_1\/conv2d\/BiasAdd",
      "type" : "elementwise",
      "name" : "functional_1\/conv2d\/BiasAdd",
      "beta" : 0
    },
    {
      "axis_mode" : 4,
      "bottom" : "functional_1\/conv2d\/BiasAdd",
      "weights" : {

      },
      "mode" : 1,
      "nd_axis" : 1,
      "nd_mode" : true,
      "debug_info" : "functional_1\/instance_normalization\/Mean",
      "use_version" : 1,
      "top" : "functional_1\/conv2d\/BiasAdd1",
      "type" : "reduce",
      "name" : "functional_1\/instance_normalization\/Mean0"
    },
    {
      "axis_mode" : 2,
      "bottom" : "functional_1\/conv2d\/BiasAdd1",
      "weights" : {

      },
      "mode" : 1,
      "nd_axis" : 2,
      "nd_mode" : true,
      "debug_info" : "functional_1\/instance_normalization\/Mean",
      "use_version" : 1,
      "top" : "functional_1\/instance_normalization\/Mean",
      "type" : "reduce",
      "name" : "functional_1\/instance_normalization\/Mean"
    },
    {
      "axis_mode" : 4,
      "bottom" : "functional_1\/conv2d\/BiasAdd",
      "weights" : {

      },
      "mode" : 1,
      "nd_axis" : 1,
      "nd_mode" : true,
      "debug_info" : "functional_1\/instance_normalization\/reduce_std\/reduce_variance\/Mean",
      "use_version" : 1,
      "top" : "functional_1\/conv2d\/BiasAdd1",
      "type" : "reduce",
      "name" : "functional_1\/instance_normalization\/reduce_std\/reduce_variance\/Mean0"
    },
    {
      "axis_mode" : 2,
      "bottom" : "functional_1\/conv2d\/BiasAdd1",
      "weights" : {

      },
      "mode" : 1,
      "nd_axis" : 2,
      "nd_mode" : true,
      "debug_info" : "functional_1\/instance_normalization\/reduce_std\/reduce_variance\/Mean",
      "use_version" : 1,
      "top" : "functional_1\/instance_normalization\/reduce_std\/reduce_variance\/Mean",
      "type" : "reduce",
      "name" : "functional_1\/instance_normalization\/reduce_std\/reduce_variance\/Mean"
    },
    {
      "bottom" : "functional_1\/conv2d\/BiasAdd,functional_1\/instance_normalization\/Mean",
      "alpha" : 1,
      "operation" : 33,
      "weights" : {

      },
      "fused_relu" : 0,
      "debug_info" : "functional_1\/instance_normalization\/sub",
      "nd_mode" : true,
      "top" : "functional_1\/instance_normalization\/sub",
      "type" : "elementwise",
      "name" : "functional_1\/instance_normalization\/sub",
      "beta" : 0
    },
    {
      "bottom" : "functional_1\/conv2d\/BiasAdd,functional_1\/instance_normalization\/reduce_std\/reduce_variance\/Mean",
      "alpha" : 1,
      "operation" : 33,
      "weights" : {

      },
      "fused_relu" : 0,
      "debug_info" : "functional_1\/instance_normalization\/reduce_std\/reduce_variance\/sub",
      "nd_mode" : true,
      "top" : "functional_1\/instance_normalization\/reduce_std\/reduce_variance\/sub",
      "type" : "elementwise",
      "name" : "functional_1\/instance_normalization\/reduce_std\/reduce_variance\/sub",
      "beta" : 0
    },
    {
      "bottom" : "functional_1\/instance_normalization\/reduce_std\/reduce_variance\/sub",
      "alpha" : 2,
      "operation" : 13,
      "weights" : {

      },
      "fused_relu" : 0,
      "debug_info" : "functional_1\/instance_normalization\/reduce_std\/reduce_variance\/Square",
      "top" : "functional_1\/instance_normalization\/reduce_std\/reduce_variance\/Square",
      "type" : "elementwise",
      "name" : "functional_1\/instance_normalization\/reduce_std\/reduce_variance\/Square",
      "beta" : 0
    },
    {
      "axis_mode" : 4,
      "bottom" : "functional_1\/instance_normalization\/reduce_std\/reduce_variance\/Square",
      "weights" : {

      },
      "mode" : 1,
      "nd_axis" : 1,
      "nd_mode" : true,
      "debug_info" : "functional_1\/instance_normalization\/reduce_std\/reduce_variance\/Mean_1",
      "use_version" : 1,
      "top" : "functional_1\/instance_normalization\/reduce_std\/reduce_variance\/Square1",
      "type" : "reduce",
      "name" : "functional_1\/instance_normalization\/reduce_std\/reduce_variance\/Mean_10"
    },
    {
      "axis_mode" : 2,
      "bottom" : "functional_1\/instance_normalization\/reduce_std\/reduce_variance\/Square1",
      "weights" : {

      },
      "mode" : 1,
      "nd_axis" : 2,
      "nd_mode" : true,
      "debug_info" : "functional_1\/instance_normalization\/reduce_std\/reduce_variance\/Mean_1",
      "use_version" : 1,
      "top" : "functional_1\/instance_normalization\/reduce_std\/reduce_variance\/Mean_1",
      "type" : "reduce",
      "name" : "functional_1\/instance_normalization\/reduce_std\/reduce_variance\/Mean_1"
    },
    {
      "bottom" : "functional_1\/instance_normalization\/reduce_std\/reduce_variance\/Mean_1",
      "alpha" : 1,
      "operation" : 11,
      "weights" : {

      },
      "fused_relu" : 0,
      "debug_info" : "functional_1\/instance_normalization\/reduce_std\/Sqrt",
      "top" : "functional_1\/instance_normalization\/reduce_std\/Sqrt",
      "type" : "elementwise",
      "name" : "functional_1\/instance_normalization\/reduce_std\/Sqrt",
      "beta" : 0
    },
    {
      "bottom" : "functional_1\/instance_normalization\/reduce_std\/Sqrt",
      "alpha" : 9.9999997171806854e-10,
      "operation" : 0,
      "weights" : {

      },
      "fused_relu" : 0,
      "debug_info" : "functional_1\/instance_normalization\/add",
      "top" : "functional_1\/instance_normalization\/add",
      "type" : "elementwise",
      "name" : "functional_1\/instance_normalization\/add",
      "beta" : 0
    },
    {
      "bottom" : "functional_1\/instance_normalization\/sub,functional_1\/instance_normalization\/add",
      "alpha" : 1,
      "operation" : 102,
      "weights" : {

      },
      "fused_relu" : 0,
      "debug_info" : "functional_1\/instance_normalization\/truediv",
      "nd_mode" : true,
      "top" : "functional_1\/instance_normalization\/truediv",
      "type" : "elementwise",
      "name" : "functional_1\/instance_normalization\/truediv",
      "beta" : 0
    },
    {
      "top" : "functional_1\/instance_normalization\/Reshape",
      "w" : 64,
      "h" : 1,
      "name" : "functional_1\/instance_normalization\/Reshape",
      "nd_rank" : 4,
      "type" : "load_constant",
      "k" : 1,
      "bottom" : "",
      "debug_info" : "functional_1\/instance_normalization\/Reshape",
      "n" : 1,
      "weights" : {

      },
      "constant_blob" : 5
    },
    {
      "bottom" : "functional_1\/instance_normalization\/truediv,functional_1\/instance_normalization\/Reshape",
      "alpha" : 1,
      "operation" : 1,
      "weights" : {

      },
      "fused_relu" : 0,
      "debug_info" : "functional_1\/instance_normalization\/mul",
      "nd_mode" : true,
      "top" : "functional_1\/instance_normalization\/mul",
      "type" : "elementwise",
      "name" : "functional_1\/instance_normalization\/mul",
      "beta" : 0
    },
    {
      "top" : "functional_1\/instance_normalization\/Reshape_1",
      "w" : 64,
      "h" : 1,
      "name" : "functional_1\/instance_normalization\/Reshape_1",
      "nd_rank" : 4,
      "type" : "load_constant",
      "k" : 1,
      "bottom" : "",
      "debug_info" : "functional_1\/instance_normalization\/Reshape_1",
      "n" : 1,
      "weights" : {

      },
      "constant_blob" : 7
    },
    {
      "bottom" : "functional_1\/instance_normalization\/mul,functional_1\/instance_normalization\/Reshape_1",
      "alpha" : 1,
      "operation" : 0,
      "weights" : {

      },
      "fused_relu" : 0,
      "debug_info" : "functional_1\/instance_normalization\/add_1",
      "nd_mode" : true,
      "top" : "functional_1\/instance_normalization\/add_1",
      "type" : "elementwise",
      "name" : "functional_1\/instance_normalization\/add_1",
      "beta" : 0
    },
    {
      "bottom" : "functional_1\/instance_normalization\/add_1",
      "weights" : {

      },
      "mode" : 0,
      "debug_info" : "functional_1\/activation\/Relu",
      "top" : "functional_1\/activation\/Relu",
      "type" : "activation",
      "name" : "functional_1\/activation\/Relu"
    },
    {
      "axis_h" : 2,
      "axis_w" : 1,
      "bottom" : "functional_1\/activation\/Relu",
      "axis_k" : 0,
      "axis_n" : 3,
      "axis_seq" : 4,
      "weights" : {

      },
      "debug_info" : "functional_1\/reflection_padding2d_1\/MirrorPad_transpose_1",
      "top" : "functional_1\/reflection_padding2d_1\/MirrorPad_transpose_1",
      "type" : "transpose",
      "name" : "functional_1\/reflection_padding2d_1\/MirrorPad_transpose_1"
    },
    {
      "name" : "functional_1\/reflection_padding2d_1\/MirrorPad_pad",
      "weights" : {

      },
      "pad_pad_mode" : 0,
      "pad_t" : 1,
      "pad_r" : 1,
      "pad_b" : 1,
      "type" : "general_padding",
      "pad_fill_mode" : 2,
      "bottom" : "functional_1\/reflection_padding2d_1\/MirrorPad_transpose_1",
      "pad_l" : 1,
      "debug_info" : "functional_1\/reflection_padding2d_1\/MirrorPad_pad",
      "pad_value" : 0,
      "top" : "functional_1\/reflection_padding2d_1\/MirrorPad_pad"
    },
    {
      "pad_r" : 0,
      "fused_relu" : 0,
      "fused_tanh" : 0,
      "debug_info" : "functional_1\/conv2d_1\/BiasAdd",
      "pad_fill_mode" : 0,
      "pad_b" : 0,
      "pad_l" : 0,
      "top" : "functional_1\/conv2d_1\/BiasAdd",
      "blob_weights" : 11,
      "K" : 64,
      "blob_biases" : 9,
      "stride_x" : 2,
      "name" : "functional_1\/conv2d_1\/BiasAdd",
      "has_batch_norm" : 0,
      "type" : "convolution",
      "n_groups" : 1,
      "pad_t" : 0,
      "stride_y" : 2,
      "has_biases" : 1,
      "C" : 128,
      "bottom" : "functional_1\/reflection_padding2d_1\/MirrorPad_pad",
      "weights" : {

      },
      "Nx" : 3,
      "pad_mode" : 0,
      "pad_value" : 0,
      "Ny" : 3,
      "n_parallel" : 1
    },
    {
      "name" : "functional_1\/reflection_padding2d_2\/MirrorPad_pad",
      "weights" : {

      },
      "pad_pad_mode" : 0,
      "pad_t" : 1,
      "pad_r" : 1,
      "pad_b" : 1,
      "type" : "general_padding",
      "pad_fill_mode" : 2,
      "bottom" : "functional_1\/conv2d_1\/BiasAdd",
      "pad_l" : 1,
      "debug_info" : "functional_1\/reflection_padding2d_2\/MirrorPad_pad",
      "pad_value" : 0,
      "top" : "functional_1\/reflection_padding2d_2\/MirrorPad_pad"
    },
    {
      "pad_r" : 0,
      "fused_relu" : 0,
      "fused_tanh" : 0,
      "debug_info" : "functional_1\/conv2d_2\/Conv2Dx",
      "pad_fill_mode" : 0,
      "pad_b" : 0,
      "pad_l" : 0,
      "top" : "functional_1\/conv2d_2\/Conv2Dx",
      "blob_weights" : 13,
      "K" : 128,
      "name" : "functional_1\/conv2d_2\/Conv2Dx",
      "has_batch_norm" : 0,
      "type" : "convolution",
      "n_groups" : 1,
      "pad_t" : 0,
      "has_biases" : 0,
      "C" : 128,
      "bottom" : "functional_1\/reflection_padding2d_2\/MirrorPad_pad",
      "weights" : {

      },
      "Nx" : 3,
      "pad_mode" : 0,
      "pad_value" : 0,
      "Ny" : 3,
      "n_parallel" : 1
    },
    {
      "axis_h" : 0,
      "axis_w" : 2,
      "bottom" : "functional_1\/conv2d_2\/Conv2Dx",
      "axis_k" : 1,
      "axis_n" : 3,
      "axis_seq" : 4,
      "weights" : {

      },
      "debug_info" : "functional_1\/conv2d_2\/Conv2D",
      "top" : "functional_1\/conv2d_2\/Conv2D",
      "type" : "transpose",
      "name" : "functional_1\/conv2d_2\/Conv2D"
    },
    {
      "top" : "functional_1\/conv2d_2\/BiasAdd\/ReadVariableOp",
      "w" : 128,
      "h" : 1,
      "name" : "functional_1\/conv2d_2\/BiasAdd\/ReadVariableOp",
      "nd_rank" : 1,
      "type" : "load_constant",
      "k" : 1,
      "bottom" : "",
      "debug_info" : "functional_1\/conv2d_2\/BiasAdd\/ReadVariableOp",
      "n" : 1,
      "weights" : {

      },
      "constant_blob" : 15
    },
    {
      "bottom" : "functional_1\/conv2d_2\/Conv2D,functional_1\/conv2d_2\/BiasAdd\/ReadVariableOp",
      "alpha" : 1,
      "operation" : 0,
      "weights" : {

      },
      "fused_relu" : 0,
      "debug_info" : "functional_1\/conv2d_2\/BiasAdd",
      "nd_mode" : true,
      "top" : "functional_1\/conv2d_2\/BiasAdd",
      "type" : "elementwise",
      "name" : "functional_1\/conv2d_2\/BiasAdd",
      "beta" : 0
    },
    {
      "axis_mode" : 4,
      "bottom" : "functional_1\/conv2d_2\/BiasAdd",
      "weights" : {

      },
      "mode" : 1,
      "nd_axis" : 1,
      "nd_mode" : true,
      "debug_info" : "functional_1\/instance_normalization_1\/Mean",
      "use_version" : 1,
      "top" : "functional_1\/conv2d_2\/BiasAdd1",
      "type" : "reduce",
      "name" : "functional_1\/instance_normalization_1\/Mean0"
    },
    {
      "axis_mode" : 2,
      "bottom" : "functional_1\/conv2d_2\/BiasAdd1",
      "weights" : {

      },
      "mode" : 1,
      "nd_axis" : 2,
      "nd_mode" : true,
      "debug_info" : "functional_1\/instance_normalization_1\/Mean",
      "use_version" : 1,
      "top" : "functional_1\/instance_normalization_1\/Mean",
      "type" : "reduce",
      "name" : "functional_1\/instance_normalization_1\/Mean"
    },
    {
      "axis_mode" : 4,
      "bottom" : "functional_1\/conv2d_2\/BiasAdd",
      "weights" : {

      },
      "mode" : 1,
      "nd_axis" : 1,
      "nd_mode" : true,
      "debug_info" : "functional_1\/instance_normalization_1\/reduce_std\/reduce_variance\/Mean",
      "use_version" : 1,
      "top" : "functional_1\/conv2d_2\/BiasAdd1",
      "type" : "reduce",
      "name" : "functional_1\/instance_normalization_1\/reduce_std\/reduce_variance\/Mean0"
    },
    {
      "axis_mode" : 2,
      "bottom" : "functional_1\/conv2d_2\/BiasAdd1",
      "weights" : {

      },
      "mode" : 1,
      "nd_axis" : 2,
      "nd_mode" : true,
      "debug_info" : "functional_1\/instance_normalization_1\/reduce_std\/reduce_variance\/Mean",
      "use_version" : 1,
      "top" : "functional_1\/instance_normalization_1\/reduce_std\/reduce_variance\/Mean",
      "type" : "reduce",
      "name" : "functional_1\/instance_normalization_1\/reduce_std\/reduce_variance\/Mean"
    },
    {
      "bottom" : "functional_1\/conv2d_2\/BiasAdd,functional_1\/instance_normalization_1\/Mean",
      "alpha" : 1,
      "operation" : 33,
      "weights" : {

      },
      "fused_relu" : 0,
      "debug_info" : "functional_1\/instance_normalization_1\/sub",
      "nd_mode" : true,
      "top" : "functional_1\/instance_normalization_1\/sub",
      "type" : "elementwise",
      "name" : "functional_1\/instance_normalization_1\/sub",
      "beta" : 0
    },
    {
      "bottom" : "functional_1\/conv2d_2\/BiasAdd,functional_1\/instance_normalization_1\/reduce_std\/reduce_variance\/Mean",
      "alpha" : 1,
      "operation" : 33,
      "weights" : {

      },
      "fused_relu" : 0,
      "debug_info" : "functional_1\/instance_normalization_1\/reduce_std\/reduce_variance\/sub",
      "nd_mode" : true,
      "top" : "functional_1\/instance_normalization_1\/reduce_std\/reduce_variance\/sub",
      "type" : "elementwise",
      "name" : "functional_1\/instance_normalization_1\/reduce_std\/reduce_variance\/sub",
      "beta" : 0
    },
    {
      "bottom" : "functional_1\/instance_normalization_1\/reduce_std\/reduce_variance\/sub",
      "alpha" : 2,
      "operation" : 13,
      "weights" : {

      },
      "fused_relu" : 0,
      "debug_info" : "functional_1\/instance_normalization_1\/reduce_std\/reduce_variance\/Square",
      "top" : "functional_1\/instance_normalization_1\/reduce_std\/reduce_variance\/Square",
      "type" : "elementwise",
      "name" : "functional_1\/instance_normalization_1\/reduce_std\/reduce_variance\/Square",
      "beta" : 0
    },
    {
      "axis_mode" : 4,
      "bottom" : "functional_1\/instance_normalization_1\/reduce_std\/reduce_variance\/Square",
      "weights" : {

      },
      "mode" : 1,
      "nd_axis" : 1,
      "nd_mode" : true,
      "debug_info" : "functional_1\/instance_normalization_1\/reduce_std\/reduce_variance\/Mean_1",
      "use_version" : 1,
      "top" : "functional_1\/instance_normalization_1\/reduce_std\/reduce_variance\/Square1",
      "type" : "reduce",
      "name" : "functional_1\/instance_normalization_1\/reduce_std\/reduce_variance\/Mean_10"
    },
    {
      "axis_mode" : 2,
      "bottom" : "functional_1\/instance_normalization_1\/reduce_std\/reduce_variance\/Square1",
      "weights" : {

      },
      "mode" : 1,
      "nd_axis" : 2,
      "nd_mode" : true,
      "debug_info" : "functional_1\/instance_normalization_1\/reduce_std\/reduce_variance\/Mean_1",
      "use_version" : 1,
      "top" : "functional_1\/instance_normalization_1\/reduce_std\/reduce_variance\/Mean_1",
      "type" : "reduce",
      "name" : "functional_1\/instance_normalization_1\/reduce_std\/reduce_variance\/Mean_1"
    },
    {
      "bottom" : "functional_1\/instance_normalization_1\/reduce_std\/reduce_variance\/Mean_1",
      "alpha" : 1,
      "operation" : 11,
      "weights" : {

      },
      "fused_relu" : 0,
      "debug_info" : "functional_1\/instance_normalization_1\/reduce_std\/Sqrt",
      "top" : "functional_1\/instance_normalization_1\/reduce_std\/Sqrt",
      "type" : "elementwise",
      "name" : "functional_1\/instance_normalization_1\/reduce_std\/Sqrt",
      "beta" : 0
    },
    {
      "bottom" : "functional_1\/instance_normalization_1\/reduce_std\/Sqrt",
      "alpha" : 9.9999997171806854e-10,
      "operation" : 0,
      "weights" : {

      },
      "fused_relu" : 0,
      "debug_info" : "functional_1\/instance_normalization_1\/add",
      "top" : "functional_1\/instance_normalization_1\/add",
      "type" : "elementwise",
      "name" : "functional_1\/instance_normalization_1\/add",
      "beta" : 0
    },
    {
      "bottom" : "functional_1\/instance_normalization_1\/sub,functional_1\/instance_normalization_1\/add",
      "alpha" : 1,
      "operation" : 102,
      "weights" : {

      },
      "fused_relu" : 0,
      "debug_info" : "functional_1\/instance_normalization_1\/truediv",
      "nd_mode" : true,
      "top" : "functional_1\/instance_normalization_1\/truediv",
      "type" : "elementwise",
      "name" : "functional_1\/instance_normalization_1\/truediv",
      "beta" : 0
    },
    {
      "top" : "functional_1\/instance_normalization_1\/Reshape",
      "w" : 128,
      "h" : 1,
      "name" : "functional_1\/instance_normalization_1\/Reshape",
      "nd_rank" : 4,
      "type" : "load_constant",
      "k" : 1,
      "bottom" : "",
      "debug_info" : "functional_1\/instance_normalization_1\/Reshape",
      "n" : 1,
      "weights" : {

      },
      "constant_blob" : 17
    },
    {
      "bottom" : "functional_1\/instance_normalization_1\/truediv,functional_1\/instance_normalization_1\/Reshape",
      "alpha" : 1,
      "operation" : 1,
      "weights" : {

      },
      "fused_relu" : 0,
      "debug_info" : "functional_1\/instance_normalization_1\/mul",
      "nd_mode" : true,
      "top" : "functional_1\/instance_normalization_1\/mul",
      "type" : "elementwise",
      "name" : "functional_1\/instance_normalization_1\/mul",
      "beta" : 0
    },
    {
      "top" : "functional_1\/instance_normalization_1\/Reshape_1",
      "w" : 128,
      "h" : 1,
      "name" : "functional_1\/instance_normalization_1\/Reshape_1",
      "nd_rank" : 4,
      "type" : "load_constant",
      "k" : 1,
      "bottom" : "",
      "debug_info" : "functional_1\/instance_normalization_1\/Reshape_1",
      "n" : 1,
      "weights" : {

      },
      "constant_blob" : 19
    },
    {
      "bottom" : "functional_1\/instance_normalization_1\/mul,functional_1\/instance_normalization_1\/Reshape_1",
      "alpha" : 1,
      "operation" : 0,
      "weights" : {

      },
      "fused_relu" : 0,
      "debug_info" : "functional_1\/instance_normalization_1\/add_1",
      "nd_mode" : true,
      "top" : "functional_1\/instance_normalization_1\/add_1",
      "type" : "elementwise",
      "name" : "functional_1\/instance_normalization_1\/add_1",
      "beta" : 0
    },
    {
      "bottom" : "functional_1\/instance_normalization_1\/add_1",
      "weights" : {

      },
      "mode" : 0,
      "debug_info" : "functional_1\/activation_1\/Relu",
      "top" : "functional_1\/activation_1\/Relu",
      "type" : "activation",
      "name" : "functional_1\/activation_1\/Relu"
    },
    {
      "axis_h" : 2,
      "axis_w" : 1,
      "bottom" : "functional_1\/activation_1\/Relu",
      "axis_k" : 0,
      "axis_n" : 3,
      "axis_seq" : 4,
      "weights" : {

      },
      "debug_info" : "functional_1\/reflection_padding2d_3\/MirrorPad_transpose_1",
      "top" : "functional_1\/reflection_padding2d_3\/MirrorPad_transpose_1",
      "type" : "transpose",
      "name" : "functional_1\/reflection_padding2d_3\/MirrorPad_transpose_1"
    },
    {
      "name" : "functional_1\/reflection_padding2d_3\/MirrorPad_pad",
      "weights" : {

      },
      "pad_pad_mode" : 0,
      "pad_t" : 1,
      "pad_r" : 1,
      "pad_b" : 1,
      "type" : "general_padding",
      "pad_fill_mode" : 2,
      "bottom" : "functional_1\/reflection_padding2d_3\/MirrorPad_transpose_1",
      "pad_l" : 1,
      "debug_info" : "functional_1\/reflection_padding2d_3\/MirrorPad_pad",
      "pad_value" : 0,
      "top" : "functional_1\/reflection_padding2d_3\/MirrorPad_pad"
    },
    {
      "pad_r" : 0,
      "fused_relu" : 0,
      "fused_tanh" : 0,
      "debug_info" : "functional_1\/conv2d_3\/BiasAdd",
      "pad_fill_mode" : 0,
      "pad_b" : 0,
      "pad_l" : 0,
      "top" : "functional_1\/conv2d_3\/BiasAdd",
      "blob_weights" : 23,
      "K" : 128,
      "blob_biases" : 21,
      "stride_x" : 2,
      "name" : "functional_1\/conv2d_3\/BiasAdd",
      "has_batch_norm" : 0,
      "type" : "convolution",
      "n_groups" : 1,
      "pad_t" : 0,
      "stride_y" : 2,
      "has_biases" : 1,
      "C" : 256,
      "bottom" : "functional_1\/reflection_padding2d_3\/MirrorPad_pad",
      "weights" : {

      },
      "Nx" : 3,
      "pad_mode" : 0,
      "pad_value" : 0,
      "Ny" : 3,
      "n_parallel" : 1
    },
    {
      "name" : "functional_1\/reflection_padding2d_4\/MirrorPad_pad",
      "weights" : {

      },
      "pad_pad_mode" : 0,
      "pad_t" : 1,
      "pad_r" : 1,
      "pad_b" : 1,
      "type" : "general_padding",
      "pad_fill_mode" : 2,
      "bottom" : "functional_1\/conv2d_3\/BiasAdd",
      "pad_l" : 1,
      "debug_info" : "functional_1\/reflection_padding2d_4\/MirrorPad_pad",
      "pad_value" : 0,
      "top" : "functional_1\/reflection_padding2d_4\/MirrorPad_pad"
    },
    {
      "pad_r" : 0,
      "fused_relu" : 0,
      "fused_tanh" : 0,
      "debug_info" : "functional_1\/conv2d_4\/Conv2Dx",
      "pad_fill_mode" : 0,
      "pad_b" : 0,
      "pad_l" : 0,
      "top" : "functional_1\/conv2d_4\/Conv2Dx",
      "blob_weights" : 25,
      "K" : 256,
      "name" : "functional_1\/conv2d_4\/Conv2Dx",
      "has_batch_norm" : 0,
      "type" : "convolution",
      "n_groups" : 1,
      "pad_t" : 0,
      "has_biases" : 0,
      "C" : 256,
      "bottom" : "functional_1\/reflection_padding2d_4\/MirrorPad_pad",
      "weights" : {

      },
      "Nx" : 3,
      "pad_mode" : 0,
      "pad_value" : 0,
      "Ny" : 3,
      "n_parallel" : 1
    },
    {
      "axis_h" : 0,
      "axis_w" : 2,
      "bottom" : "functional_1\/conv2d_4\/Conv2Dx",
      "axis_k" : 1,
      "axis_n" : 3,
      "axis_seq" : 4,
      "weights" : {

      },
      "debug_info" : "functional_1\/conv2d_4\/Conv2D",
      "top" : "functional_1\/conv2d_4\/Conv2D",
      "type" : "transpose",
      "name" : "functional_1\/conv2d_4\/Conv2D"
    },
    {
      "top" : "functional_1\/conv2d_4\/BiasAdd\/ReadVariableOp",
      "w" : 256,
      "h" : 1,
      "name" : "functional_1\/conv2d_4\/BiasAdd\/ReadVariableOp",
      "nd_rank" : 1,
      "type" : "load_constant",
      "k" : 1,
      "bottom" : "",
      "debug_info" : "functional_1\/conv2d_4\/BiasAdd\/ReadVariableOp",
      "n" : 1,
      "weights" : {

      },
      "constant_blob" : 27
    },
    {
      "bottom" : "functional_1\/conv2d_4\/Conv2D,functional_1\/conv2d_4\/BiasAdd\/ReadVariableOp",
      "alpha" : 1,
      "operation" : 0,
      "weights" : {

      },
      "fused_relu" : 0,
      "debug_info" : "functional_1\/conv2d_4\/BiasAdd",
      "nd_mode" : true,
      "top" : "functional_1\/conv2d_4\/BiasAdd",
      "type" : "elementwise",
      "name" : "functional_1\/conv2d_4\/BiasAdd",
      "beta" : 0
    },
    {
      "axis_mode" : 4,
      "bottom" : "functional_1\/conv2d_4\/BiasAdd",
      "weights" : {

      },
      "mode" : 1,
      "nd_axis" : 1,
      "nd_mode" : true,
      "debug_info" : "functional_1\/instance_normalization_2\/Mean",
      "use_version" : 1,
      "top" : "functional_1\/conv2d_4\/BiasAdd1",
      "type" : "reduce",
      "name" : "functional_1\/instance_normalization_2\/Mean0"
    },
    {
      "axis_mode" : 2,
      "bottom" : "functional_1\/conv2d_4\/BiasAdd1",
      "weights" : {

      },
      "mode" : 1,
      "nd_axis" : 2,
      "nd_mode" : true,
      "debug_info" : "functional_1\/instance_normalization_2\/Mean",
      "use_version" : 1,
      "top" : "functional_1\/instance_normalization_2\/Mean",
      "type" : "reduce",
      "name" : "functional_1\/instance_normalization_2\/Mean"
    },
    {
      "axis_mode" : 4,
      "bottom" : "functional_1\/conv2d_4\/BiasAdd",
      "weights" : {

      },
      "mode" : 1,
      "nd_axis" : 1,
      "nd_mode" : true,
      "debug_info" : "functional_1\/instance_normalization_2\/reduce_std\/reduce_variance\/Mean",
      "use_version" : 1,
      "top" : "functional_1\/conv2d_4\/BiasAdd1",
      "type" : "reduce",
      "name" : "functional_1\/instance_normalization_2\/reduce_std\/reduce_variance\/Mean0"
    },
    {
      "axis_mode" : 2,
      "bottom" : "functional_1\/conv2d_4\/BiasAdd1",
      "weights" : {

      },
      "mode" : 1,
      "nd_axis" : 2,
      "nd_mode" : true,
      "debug_info" : "functional_1\/instance_normalization_2\/reduce_std\/reduce_variance\/Mean",
      "use_version" : 1,
      "top" : "functional_1\/instance_normalization_2\/reduce_std\/reduce_variance\/Mean",
      "type" : "reduce",
      "name" : "functional_1\/instance_normalization_2\/reduce_std\/reduce_variance\/Mean"
    },
    {
      "bottom" : "functional_1\/conv2d_4\/BiasAdd,functional_1\/instance_normalization_2\/Mean",
      "alpha" : 1,
      "operation" : 33,
      "weights" : {

      },
      "fused_relu" : 0,
      "debug_info" : "functional_1\/instance_normalization_2\/sub",
      "nd_mode" : true,
      "top" : "functional_1\/instance_normalization_2\/sub",
      "type" : "elementwise",
      "name" : "functional_1\/instance_normalization_2\/sub",
      "beta" : 0
    },
    {
      "bottom" : "functional_1\/conv2d_4\/BiasAdd,functional_1\/instance_normalization_2\/reduce_std\/reduce_variance\/Mean",
      "alpha" : 1,
      "operation" : 33,
      "weights" : {

      },
      "fused_relu" : 0,
      "debug_info" : "functional_1\/instance_normalization_2\/reduce_std\/reduce_variance\/sub",
      "nd_mode" : true,
      "top" : "functional_1\/instance_normalization_2\/reduce_std\/reduce_variance\/sub",
      "type" : "elementwise",
      "name" : "functional_1\/instance_normalization_2\/reduce_std\/reduce_variance\/sub",
      "beta" : 0
    },
    {
      "bottom" : "functional_1\/instance_normalization_2\/reduce_std\/reduce_variance\/sub",
      "alpha" : 2,
      "operation" : 13,
      "weights" : {

      },
      "fused_relu" : 0,
      "debug_info" : "functional_1\/instance_normalization_2\/reduce_std\/reduce_variance\/Square",
      "top" : "functional_1\/instance_normalization_2\/reduce_std\/reduce_variance\/Square",
      "type" : "elementwise",
      "name" : "functional_1\/instance_normalization_2\/reduce_std\/reduce_variance\/Square",
      "beta" : 0
    },
    {
      "axis_mode" : 4,
      "bottom" : "functional_1\/instance_normalization_2\/reduce_std\/reduce_variance\/Square",
      "weights" : {

      },
      "mode" : 1,
      "nd_axis" : 1,
      "nd_mode" : true,
      "debug_info" : "functional_1\/instance_normalization_2\/reduce_std\/reduce_variance\/Mean_1",
      "use_version" : 1,
      "top" : "functional_1\/instance_normalization_2\/reduce_std\/reduce_variance\/Square1",
      "type" : "reduce",
      "name" : "functional_1\/instance_normalization_2\/reduce_std\/reduce_variance\/Mean_10"
    },
    {
      "axis_mode" : 2,
      "bottom" : "functional_1\/instance_normalization_2\/reduce_std\/reduce_variance\/Square1",
      "weights" : {

      },
      "mode" : 1,
      "nd_axis" : 2,
      "nd_mode" : true,
      "debug_info" : "functional_1\/instance_normalization_2\/reduce_std\/reduce_variance\/Mean_1",
      "use_version" : 1,
      "top" : "functional_1\/instance_normalization_2\/reduce_std\/reduce_variance\/Mean_1",
      "type" : "reduce",
      "name" : "functional_1\/instance_normalization_2\/reduce_std\/reduce_variance\/Mean_1"
    },
    {
      "bottom" : "functional_1\/instance_normalization_2\/reduce_std\/reduce_variance\/Mean_1",
      "alpha" : 1,
      "operation" : 11,
      "weights" : {

      },
      "fused_relu" : 0,
      "debug_info" : "functional_1\/instance_normalization_2\/reduce_std\/Sqrt",
      "top" : "functional_1\/instance_normalization_2\/reduce_std\/Sqrt",
      "type" : "elementwise",
      "name" : "functional_1\/instance_normalization_2\/reduce_std\/Sqrt",
      "beta" : 0
    },
    {
      "bottom" : "functional_1\/instance_normalization_2\/reduce_std\/Sqrt",
      "alpha" : 9.9999997171806854e-10,
      "operation" : 0,
      "weights" : {

      },
      "fused_relu" : 0,
      "debug_info" : "functional_1\/instance_normalization_2\/add",
      "top" : "functional_1\/instance_normalization_2\/add",
      "type" : "elementwise",
      "name" : "functional_1\/instance_normalization_2\/add",
      "beta" : 0
    },
    {
      "bottom" : "functional_1\/instance_normalization_2\/sub,functional_1\/instance_normalization_2\/add",
      "alpha" : 1,
      "operation" : 102,
      "weights" : {

      },
      "fused_relu" : 0,
      "debug_info" : "functional_1\/instance_normalization_2\/truediv",
      "nd_mode" : true,
      "top" : "functional_1\/instance_normalization_2\/truediv",
      "type" : "elementwise",
      "name" : "functional_1\/instance_normalization_2\/truediv",
      "beta" : 0
    },
    {
      "top" : "functional_1\/instance_normalization_2\/Reshape",
      "w" : 256,
      "h" : 1,
      "name" : "functional_1\/instance_normalization_2\/Reshape",
      "nd_rank" : 4,
      "type" : "load_constant",
      "k" : 1,
      "bottom" : "",
      "debug_info" : "functional_1\/instance_normalization_2\/Reshape",
      "n" : 1,
      "weights" : {

      },
      "constant_blob" : 29
    },
    {
      "bottom" : "functional_1\/instance_normalization_2\/truediv,functional_1\/instance_normalization_2\/Reshape",
      "alpha" : 1,
      "operation" : 1,
      "weights" : {

      },
      "fused_relu" : 0,
      "debug_info" : "functional_1\/instance_normalization_2\/mul",
      "nd_mode" : true,
      "top" : "functional_1\/instance_normalization_2\/mul",
      "type" : "elementwise",
      "name" : "functional_1\/instance_normalization_2\/mul",
      "beta" : 0
    },
    {
      "top" : "functional_1\/instance_normalization_2\/Reshape_1",
      "w" : 256,
      "h" : 1,
      "name" : "functional_1\/instance_normalization_2\/Reshape_1",
      "nd_rank" : 4,
      "type" : "load_constant",
      "k" : 1,
      "bottom" : "",
      "debug_info" : "functional_1\/instance_normalization_2\/Reshape_1",
      "n" : 1,
      "weights" : {

      },
      "constant_blob" : 31
    },
    {
      "bottom" : "functional_1\/instance_normalization_2\/mul,functional_1\/instance_normalization_2\/Reshape_1",
      "alpha" : 1,
      "operation" : 0,
      "weights" : {

      },
      "fused_relu" : 0,
      "debug_info" : "functional_1\/instance_normalization_2\/add_1",
      "nd_mode" : true,
      "top" : "functional_1\/instance_normalization_2\/add_1",
      "type" : "elementwise",
      "name" : "functional_1\/instance_normalization_2\/add_1",
      "beta" : 0
    },
    {
      "bottom" : "functional_1\/instance_normalization_2\/add_1",
      "weights" : {

      },
      "mode" : 0,
      "debug_info" : "functional_1\/activation_2\/Relu",
      "top" : "functional_1\/activation_2\/Relu",
      "type" : "activation",
      "name" : "functional_1\/activation_2\/Relu"
    },
    {
      "axis_h" : 2,
      "axis_w" : 1,
      "bottom" : "functional_1\/activation_2\/Relu",
      "axis_k" : 0,
      "axis_n" : 3,
      "axis_seq" : 4,
      "weights" : {

      },
      "debug_info" : "functional_1\/reflection_padding2d_5\/MirrorPad_transpose_1",
      "top" : "functional_1\/reflection_padding2d_5\/MirrorPad_transpose_1",
      "type" : "transpose",
      "name" : "functional_1\/reflection_padding2d_5\/MirrorPad_transpose_1"
    },
    {
      "name" : "functional_1\/reflection_padding2d_5\/MirrorPad_pad",
      "weights" : {

      },
      "pad_pad_mode" : 0,
      "pad_t" : 1,
      "pad_r" : 1,
      "pad_b" : 1,
      "type" : "general_padding",
      "pad_fill_mode" : 2,
      "bottom" : "functional_1\/reflection_padding2d_5\/MirrorPad_transpose_1",
      "pad_l" : 1,
      "debug_info" : "functional_1\/reflection_padding2d_5\/MirrorPad_pad",
      "pad_value" : 0,
      "top" : "functional_1\/reflection_padding2d_5\/MirrorPad_pad"
    },
    {
      "pad_r" : 0,
      "fused_relu" : 0,
      "fused_tanh" : 0,
      "debug_info" : "functional_1\/conv2d_5\/Conv2Dx",
      "pad_fill_mode" : 0,
      "pad_b" : 0,
      "pad_l" : 0,
      "top" : "functional_1\/conv2d_5\/Conv2Dx",
      "blob_weights" : 33,
      "K" : 256,
      "name" : "functional_1\/conv2d_5\/Conv2Dx",
      "has_batch_norm" : 0,
      "type" : "convolution",
      "n_groups" : 1,
      "pad_t" : 0,
      "has_biases" : 0,
      "C" : 256,
      "bottom" : "functional_1\/reflection_padding2d_5\/MirrorPad_pad",
      "weights" : {

      },
      "Nx" : 3,
      "pad_mode" : 0,
      "pad_value" : 0,
      "Ny" : 3,
      "n_parallel" : 1
    },
    {
      "axis_h" : 0,
      "axis_w" : 2,
      "bottom" : "functional_1\/conv2d_5\/Conv2Dx",
      "axis_k" : 1,
      "axis_n" : 3,
      "axis_seq" : 4,
      "weights" : {

      },
      "debug_info" : "functional_1\/conv2d_5\/Conv2D",
      "top" : "functional_1\/conv2d_5\/Conv2D",
      "type" : "transpose",
      "name" : "functional_1\/conv2d_5\/Conv2D"
    },
    {
      "top" : "functional_1\/conv2d_5\/BiasAdd\/ReadVariableOp",
      "w" : 256,
      "h" : 1,
      "name" : "functional_1\/conv2d_5\/BiasAdd\/ReadVariableOp",
      "nd_rank" : 1,
      "type" : "load_constant",
      "k" : 1,
      "bottom" : "",
      "debug_info" : "functional_1\/conv2d_5\/BiasAdd\/ReadVariableOp",
      "n" : 1,
      "weights" : {

      },
      "constant_blob" : 35
    },
    {
      "bottom" : "functional_1\/conv2d_5\/Conv2D,functional_1\/conv2d_5\/BiasAdd\/ReadVariableOp",
      "alpha" : 1,
      "operation" : 0,
      "weights" : {

      },
      "fused_relu" : 0,
      "debug_info" : "functional_1\/conv2d_5\/BiasAdd",
      "nd_mode" : true,
      "top" : "functional_1\/conv2d_5\/BiasAdd",
      "type" : "elementwise",
      "name" : "functional_1\/conv2d_5\/BiasAdd",
      "beta" : 0
    },
    {
      "axis_mode" : 4,
      "bottom" : "functional_1\/conv2d_5\/BiasAdd",
      "weights" : {

      },
      "mode" : 1,
      "nd_axis" : 1,
      "nd_mode" : true,
      "debug_info" : "functional_1\/instance_normalization_3\/Mean",
      "use_version" : 1,
      "top" : "functional_1\/conv2d_5\/BiasAdd1",
      "type" : "reduce",
      "name" : "functional_1\/instance_normalization_3\/Mean0"
    },
    {
      "axis_mode" : 2,
      "bottom" : "functional_1\/conv2d_5\/BiasAdd1",
      "weights" : {

      },
      "mode" : 1,
      "nd_axis" : 2,
      "nd_mode" : true,
      "debug_info" : "functional_1\/instance_normalization_3\/Mean",
      "use_version" : 1,
      "top" : "functional_1\/instance_normalization_3\/Mean",
      "type" : "reduce",
      "name" : "functional_1\/instance_normalization_3\/Mean"
    },
    {
      "axis_mode" : 4,
      "bottom" : "functional_1\/conv2d_5\/BiasAdd",
      "weights" : {

      },
      "mode" : 1,
      "nd_axis" : 1,
      "nd_mode" : true,
      "debug_info" : "functional_1\/instance_normalization_3\/reduce_std\/reduce_variance\/Mean",
      "use_version" : 1,
      "top" : "functional_1\/conv2d_5\/BiasAdd1",
      "type" : "reduce",
      "name" : "functional_1\/instance_normalization_3\/reduce_std\/reduce_variance\/Mean0"
    },
    {
      "axis_mode" : 2,
      "bottom" : "functional_1\/conv2d_5\/BiasAdd1",
      "weights" : {

      },
      "mode" : 1,
      "nd_axis" : 2,
      "nd_mode" : true,
      "debug_info" : "functional_1\/instance_normalization_3\/reduce_std\/reduce_variance\/Mean",
      "use_version" : 1,
      "top" : "functional_1\/instance_normalization_3\/reduce_std\/reduce_variance\/Mean",
      "type" : "reduce",
      "name" : "functional_1\/instance_normalization_3\/reduce_std\/reduce_variance\/Mean"
    },
    {
      "bottom" : "functional_1\/conv2d_5\/BiasAdd,functional_1\/instance_normalization_3\/Mean",
      "alpha" : 1,
      "operation" : 33,
      "weights" : {

      },
      "fused_relu" : 0,
      "debug_info" : "functional_1\/instance_normalization_3\/sub",
      "nd_mode" : true,
      "top" : "functional_1\/instance_normalization_3\/sub",
      "type" : "elementwise",
      "name" : "functional_1\/instance_normalization_3\/sub",
      "beta" : 0
    },
    {
      "bottom" : "functional_1\/conv2d_5\/BiasAdd,functional_1\/instance_normalization_3\/reduce_std\/reduce_variance\/Mean",
      "alpha" : 1,
      "operation" : 33,
      "weights" : {

      },
      "fused_relu" : 0,
      "debug_info" : "functional_1\/instance_normalization_3\/reduce_std\/reduce_variance\/sub",
      "nd_mode" : true,
      "top" : "functional_1\/instance_normalization_3\/reduce_std\/reduce_variance\/sub",
      "type" : "elementwise",
      "name" : "functional_1\/instance_normalization_3\/reduce_std\/reduce_variance\/sub",
      "beta" : 0
    },
    {
      "bottom" : "functional_1\/instance_normalization_3\/reduce_std\/reduce_variance\/sub",
      "alpha" : 2,
      "operation" : 13,
      "weights" : {

      },
      "fused_relu" : 0,
      "debug_info" : "functional_1\/instance_normalization_3\/reduce_std\/reduce_variance\/Square",
      "top" : "functional_1\/instance_normalization_3\/reduce_std\/reduce_variance\/Square",
      "type" : "elementwise",
      "name" : "functional_1\/instance_normalization_3\/reduce_std\/reduce_variance\/Square",
      "beta" : 0
    },
    {
      "axis_mode" : 4,
      "bottom" : "functional_1\/instance_normalization_3\/reduce_std\/reduce_variance\/Square",
      "weights" : {

      },
      "mode" : 1,
      "nd_axis" : 1,
      "nd_mode" : true,
      "debug_info" : "functional_1\/instance_normalization_3\/reduce_std\/reduce_variance\/Mean_1",
      "use_version" : 1,
      "top" : "functional_1\/instance_normalization_3\/reduce_std\/reduce_variance\/Square1",
      "type" : "reduce",
      "name" : "functional_1\/instance_normalization_3\/reduce_std\/reduce_variance\/Mean_10"
    },
    {
      "axis_mode" : 2,
      "bottom" : "functional_1\/instance_normalization_3\/reduce_std\/reduce_variance\/Square1",
      "weights" : {

      },
      "mode" : 1,
      "nd_axis" : 2,
      "nd_mode" : true,
      "debug_info" : "functional_1\/instance_normalization_3\/reduce_std\/reduce_variance\/Mean_1",
      "use_version" : 1,
      "top" : "functional_1\/instance_normalization_3\/reduce_std\/reduce_variance\/Mean_1",
      "type" : "reduce",
      "name" : "functional_1\/instance_normalization_3\/reduce_std\/reduce_variance\/Mean_1"
    },
    {
      "bottom" : "functional_1\/instance_normalization_3\/reduce_std\/reduce_variance\/Mean_1",
      "alpha" : 1,
      "operation" : 11,
      "weights" : {

      },
      "fused_relu" : 0,
      "debug_info" : "functional_1\/instance_normalization_3\/reduce_std\/Sqrt",
      "top" : "functional_1\/instance_normalization_3\/reduce_std\/Sqrt",
      "type" : "elementwise",
      "name" : "functional_1\/instance_normalization_3\/reduce_std\/Sqrt",
      "beta" : 0
    },
    {
      "bottom" : "functional_1\/instance_normalization_3\/reduce_std\/Sqrt",
      "alpha" : 9.9999997171806854e-10,
      "operation" : 0,
      "weights" : {

      },
      "fused_relu" : 0,
      "debug_info" : "functional_1\/instance_normalization_3\/add",
      "top" : "functional_1\/instance_normalization_3\/add",
      "type" : "elementwise",
      "name" : "functional_1\/instance_normalization_3\/add",
      "beta" : 0
    },
    {
      "bottom" : "functional_1\/instance_normalization_3\/sub,functional_1\/instance_normalization_3\/add",
      "alpha" : 1,
      "operation" : 102,
      "weights" : {

      },
      "fused_relu" : 0,
      "debug_info" : "functional_1\/instance_normalization_3\/truediv",
      "nd_mode" : true,
      "top" : "functional_1\/instance_normalization_3\/truediv",
      "type" : "elementwise",
      "name" : "functional_1\/instance_normalization_3\/truediv",
      "beta" : 0
    },
    {
      "top" : "functional_1\/instance_normalization_3\/Reshape",
      "w" : 256,
      "h" : 1,
      "name" : "functional_1\/instance_normalization_3\/Reshape",
      "nd_rank" : 4,
      "type" : "load_constant",
      "k" : 1,
      "bottom" : "",
      "debug_info" : "functional_1\/instance_normalization_3\/Reshape",
      "n" : 1,
      "weights" : {

      },
      "constant_blob" : 37
    },
    {
      "bottom" : "functional_1\/instance_normalization_3\/truediv,functional_1\/instance_normalization_3\/Reshape",
      "alpha" : 1,
      "operation" : 1,
      "weights" : {

      },
      "fused_relu" : 0,
      "debug_info" : "functional_1\/instance_normalization_3\/mul",
      "nd_mode" : true,
      "top" : "functional_1\/instance_normalization_3\/mul",
      "type" : "elementwise",
      "name" : "functional_1\/instance_normalization_3\/mul",
      "beta" : 0
    },
    {
      "top" : "functional_1\/instance_normalization_3\/Reshape_1",
      "w" : 256,
      "h" : 1,
      "name" : "functional_1\/instance_normalization_3\/Reshape_1",
      "nd_rank" : 4,
      "type" : "load_constant",
      "k" : 1,
      "bottom" : "",
      "debug_info" : "functional_1\/instance_normalization_3\/Reshape_1",
      "n" : 1,
      "weights" : {

      },
      "constant_blob" : 39
    },
    {
      "bottom" : "functional_1\/instance_normalization_3\/mul,functional_1\/instance_normalization_3\/Reshape_1",
      "alpha" : 1,
      "operation" : 0,
      "weights" : {

      },
      "fused_relu" : 0,
      "debug_info" : "functional_1\/instance_normalization_3\/add_1",
      "nd_mode" : true,
      "top" : "functional_1\/instance_normalization_3\/add_1",
      "type" : "elementwise",
      "name" : "functional_1\/instance_normalization_3\/add_1",
      "beta" : 0
    },
    {
      "bottom" : "functional_1\/instance_normalization_3\/add_1",
      "weights" : {

      },
      "mode" : 0,
      "debug_info" : "functional_1\/activation_3\/Relu",
      "top" : "functional_1\/activation_3\/Relu",
      "type" : "activation",
      "name" : "functional_1\/activation_3\/Relu"
    },
    {
      "axis_h" : 2,
      "axis_w" : 1,
      "bottom" : "functional_1\/activation_3\/Relu",
      "axis_k" : 0,
      "axis_n" : 3,
      "axis_seq" : 4,
      "weights" : {

      },
      "debug_info" : "functional_1\/reflection_padding2d_6\/MirrorPad_transpose_1",
      "top" : "functional_1\/reflection_padding2d_6\/MirrorPad_transpose_1",
      "type" : "transpose",
      "name" : "functional_1\/reflection_padding2d_6\/MirrorPad_transpose_1"
    },
    {
      "name" : "functional_1\/reflection_padding2d_6\/MirrorPad_pad",
      "weights" : {

      },
      "pad_pad_mode" : 0,
      "pad_t" : 1,
      "pad_r" : 1,
      "pad_b" : 1,
      "type" : "general_padding",
      "pad_fill_mode" : 2,
      "bottom" : "functional_1\/reflection_padding2d_6\/MirrorPad_transpose_1",
      "pad_l" : 1,
      "debug_info" : "functional_1\/reflection_padding2d_6\/MirrorPad_pad",
      "pad_value" : 0,
      "top" : "functional_1\/reflection_padding2d_6\/MirrorPad_pad"
    },
    {
      "pad_r" : 0,
      "fused_relu" : 0,
      "fused_tanh" : 0,
      "debug_info" : "functional_1\/conv2d_6\/Conv2Dx",
      "pad_fill_mode" : 0,
      "pad_b" : 0,
      "pad_l" : 0,
      "top" : "functional_1\/conv2d_6\/Conv2Dx",
      "blob_weights" : 41,
      "K" : 256,
      "name" : "functional_1\/conv2d_6\/Conv2Dx",
      "has_batch_norm" : 0,
      "type" : "convolution",
      "n_groups" : 1,
      "pad_t" : 0,
      "has_biases" : 0,
      "C" : 256,
      "bottom" : "functional_1\/reflection_padding2d_6\/MirrorPad_pad",
      "weights" : {

      },
      "Nx" : 3,
      "pad_mode" : 0,
      "pad_value" : 0,
      "Ny" : 3,
      "n_parallel" : 1
    },
    {
      "axis_h" : 0,
      "axis_w" : 2,
      "bottom" : "functional_1\/conv2d_6\/Conv2Dx",
      "axis_k" : 1,
      "axis_n" : 3,
      "axis_seq" : 4,
      "weights" : {

      },
      "debug_info" : "functional_1\/conv2d_6\/Conv2D",
      "top" : "functional_1\/conv2d_6\/Conv2D",
      "type" : "transpose",
      "name" : "functional_1\/conv2d_6\/Conv2D"
    },
    {
      "top" : "functional_1\/conv2d_6\/BiasAdd\/ReadVariableOp",
      "w" : 256,
      "h" : 1,
      "name" : "functional_1\/conv2d_6\/BiasAdd\/ReadVariableOp",
      "nd_rank" : 1,
      "type" : "load_constant",
      "k" : 1,
      "bottom" : "",
      "debug_info" : "functional_1\/conv2d_6\/BiasAdd\/ReadVariableOp",
      "n" : 1,
      "weights" : {

      },
      "constant_blob" : 43
    },
    {
      "bottom" : "functional_1\/conv2d_6\/Conv2D,functional_1\/conv2d_6\/BiasAdd\/ReadVariableOp",
      "alpha" : 1,
      "operation" : 0,
      "weights" : {

      },
      "fused_relu" : 0,
      "debug_info" : "functional_1\/conv2d_6\/BiasAdd",
      "nd_mode" : true,
      "top" : "functional_1\/conv2d_6\/BiasAdd",
      "type" : "elementwise",
      "name" : "functional_1\/conv2d_6\/BiasAdd",
      "beta" : 0
    },
    {
      "axis_mode" : 4,
      "bottom" : "functional_1\/conv2d_6\/BiasAdd",
      "weights" : {

      },
      "mode" : 1,
      "nd_axis" : 1,
      "nd_mode" : true,
      "debug_info" : "functional_1\/instance_normalization_4\/Mean",
      "use_version" : 1,
      "top" : "functional_1\/conv2d_6\/BiasAdd1",
      "type" : "reduce",
      "name" : "functional_1\/instance_normalization_4\/Mean0"
    },
    {
      "axis_mode" : 2,
      "bottom" : "functional_1\/conv2d_6\/BiasAdd1",
      "weights" : {

      },
      "mode" : 1,
      "nd_axis" : 2,
      "nd_mode" : true,
      "debug_info" : "functional_1\/instance_normalization_4\/Mean",
      "use_version" : 1,
      "top" : "functional_1\/instance_normalization_4\/Mean",
      "type" : "reduce",
      "name" : "functional_1\/instance_normalization_4\/Mean"
    },
    {
      "axis_mode" : 4,
      "bottom" : "functional_1\/conv2d_6\/BiasAdd",
      "weights" : {

      },
      "mode" : 1,
      "nd_axis" : 1,
      "nd_mode" : true,
      "debug_info" : "functional_1\/instance_normalization_4\/reduce_std\/reduce_variance\/Mean",
      "use_version" : 1,
      "top" : "functional_1\/conv2d_6\/BiasAdd1",
      "type" : "reduce",
      "name" : "functional_1\/instance_normalization_4\/reduce_std\/reduce_variance\/Mean0"
    },
    {
      "axis_mode" : 2,
      "bottom" : "functional_1\/conv2d_6\/BiasAdd1",
      "weights" : {

      },
      "mode" : 1,
      "nd_axis" : 2,
      "nd_mode" : true,
      "debug_info" : "functional_1\/instance_normalization_4\/reduce_std\/reduce_variance\/Mean",
      "use_version" : 1,
      "top" : "functional_1\/instance_normalization_4\/reduce_std\/reduce_variance\/Mean",
      "type" : "reduce",
      "name" : "functional_1\/instance_normalization_4\/reduce_std\/reduce_variance\/Mean"
    },
    {
      "bottom" : "functional_1\/conv2d_6\/BiasAdd,functional_1\/instance_normalization_4\/Mean",
      "alpha" : 1,
      "operation" : 33,
      "weights" : {

      },
      "fused_relu" : 0,
      "debug_info" : "functional_1\/instance_normalization_4\/sub",
      "nd_mode" : true,
      "top" : "functional_1\/instance_normalization_4\/sub",
      "type" : "elementwise",
      "name" : "functional_1\/instance_normalization_4\/sub",
      "beta" : 0
    },
    {
      "bottom" : "functional_1\/conv2d_6\/BiasAdd,functional_1\/instance_normalization_4\/reduce_std\/reduce_variance\/Mean",
      "alpha" : 1,
      "operation" : 33,
      "weights" : {

      },
      "fused_relu" : 0,
      "debug_info" : "functional_1\/instance_normalization_4\/reduce_std\/reduce_variance\/sub",
      "nd_mode" : true,
      "top" : "functional_1\/instance_normalization_4\/reduce_std\/reduce_variance\/sub",
      "type" : "elementwise",
      "name" : "functional_1\/instance_normalization_4\/reduce_std\/reduce_variance\/sub",
      "beta" : 0
    },
    {
      "bottom" : "functional_1\/instance_normalization_4\/reduce_std\/reduce_variance\/sub",
      "alpha" : 2,
      "operation" : 13,
      "weights" : {

      },
      "fused_relu" : 0,
      "debug_info" : "functional_1\/instance_normalization_4\/reduce_std\/reduce_variance\/Square",
      "top" : "functional_1\/instance_normalization_4\/reduce_std\/reduce_variance\/Square",
      "type" : "elementwise",
      "name" : "functional_1\/instance_normalization_4\/reduce_std\/reduce_variance\/Square",
      "beta" : 0
    },
    {
      "axis_mode" : 4,
      "bottom" : "functional_1\/instance_normalization_4\/reduce_std\/reduce_variance\/Square",
      "weights" : {

      },
      "mode" : 1,
      "nd_axis" : 1,
      "nd_mode" : true,
      "debug_info" : "functional_1\/instance_normalization_4\/reduce_std\/reduce_variance\/Mean_1",
      "use_version" : 1,
      "top" : "functional_1\/instance_normalization_4\/reduce_std\/reduce_variance\/Square1",
      "type" : "reduce",
      "name" : "functional_1\/instance_normalization_4\/reduce_std\/reduce_variance\/Mean_10"
    },
    {
      "axis_mode" : 2,
      "bottom" : "functional_1\/instance_normalization_4\/reduce_std\/reduce_variance\/Square1",
      "weights" : {

      },
      "mode" : 1,
      "nd_axis" : 2,
      "nd_mode" : true,
      "debug_info" : "functional_1\/instance_normalization_4\/reduce_std\/reduce_variance\/Mean_1",
      "use_version" : 1,
      "top" : "functional_1\/instance_normalization_4\/reduce_std\/reduce_variance\/Mean_1",
      "type" : "reduce",
      "name" : "functional_1\/instance_normalization_4\/reduce_std\/reduce_variance\/Mean_1"
    },
    {
      "bottom" : "functional_1\/instance_normalization_4\/reduce_std\/reduce_variance\/Mean_1",
      "alpha" : 1,
      "operation" : 11,
      "weights" : {

      },
      "fused_relu" : 0,
      "debug_info" : "functional_1\/instance_normalization_4\/reduce_std\/Sqrt",
      "top" : "functional_1\/instance_normalization_4\/reduce_std\/Sqrt",
      "type" : "elementwise",
      "name" : "functional_1\/instance_normalization_4\/reduce_std\/Sqrt",
      "beta" : 0
    },
    {
      "bottom" : "functional_1\/instance_normalization_4\/reduce_std\/Sqrt",
      "alpha" : 9.9999997171806854e-10,
      "operation" : 0,
      "weights" : {

      },
      "fused_relu" : 0,
      "debug_info" : "functional_1\/instance_normalization_4\/add",
      "top" : "functional_1\/instance_normalization_4\/add",
      "type" : "elementwise",
      "name" : "functional_1\/instance_normalization_4\/add",
      "beta" : 0
    },
    {
      "bottom" : "functional_1\/instance_normalization_4\/sub,functional_1\/instance_normalization_4\/add",
      "alpha" : 1,
      "operation" : 102,
      "weights" : {

      },
      "fused_relu" : 0,
      "debug_info" : "functional_1\/instance_normalization_4\/truediv",
      "nd_mode" : true,
      "top" : "functional_1\/instance_normalization_4\/truediv",
      "type" : "elementwise",
      "name" : "functional_1\/instance_normalization_4\/truediv",
      "beta" : 0
    },
    {
      "top" : "functional_1\/instance_normalization_4\/Reshape",
      "w" : 256,
      "h" : 1,
      "name" : "functional_1\/instance_normalization_4\/Reshape",
      "nd_rank" : 4,
      "type" : "load_constant",
      "k" : 1,
      "bottom" : "",
      "debug_info" : "functional_1\/instance_normalization_4\/Reshape",
      "n" : 1,
      "weights" : {

      },
      "constant_blob" : 45
    },
    {
      "bottom" : "functional_1\/instance_normalization_4\/truediv,functional_1\/instance_normalization_4\/Reshape",
      "alpha" : 1,
      "operation" : 1,
      "weights" : {

      },
      "fused_relu" : 0,
      "debug_info" : "functional_1\/instance_normalization_4\/mul",
      "nd_mode" : true,
      "top" : "functional_1\/instance_normalization_4\/mul",
      "type" : "elementwise",
      "name" : "functional_1\/instance_normalization_4\/mul",
      "beta" : 0
    },
    {
      "top" : "functional_1\/instance_normalization_4\/Reshape_1",
      "w" : 256,
      "h" : 1,
      "name" : "functional_1\/instance_normalization_4\/Reshape_1",
      "nd_rank" : 4,
      "type" : "load_constant",
      "k" : 1,
      "bottom" : "",
      "debug_info" : "functional_1\/instance_normalization_4\/Reshape_1",
      "n" : 1,
      "weights" : {

      },
      "constant_blob" : 47
    },
    {
      "bottom" : "functional_1\/instance_normalization_4\/mul,functional_1\/instance_normalization_4\/Reshape_1",
      "alpha" : 1,
      "operation" : 0,
      "weights" : {

      },
      "fused_relu" : 0,
      "debug_info" : "functional_1\/instance_normalization_4\/add_1",
      "nd_mode" : true,
      "top" : "functional_1\/instance_normalization_4\/add_1",
      "type" : "elementwise",
      "name" : "functional_1\/instance_normalization_4\/add_1",
      "beta" : 0
    },
    {
      "bottom" : "functional_1\/instance_normalization_4\/add_1,functional_1\/activation_2\/Relu",
      "alpha" : 1,
      "operation" : 0,
      "weights" : {

      },
      "fused_relu" : 0,
      "debug_info" : "functional_1\/add\/add",
      "top" : "functional_1\/add\/add",
      "type" : "elementwise",
      "name" : "functional_1\/add\/add",
      "beta" : 0
    },
    {
      "axis_h" : 2,
      "axis_w" : 1,
      "bottom" : "functional_1\/add\/add",
      "axis_k" : 0,
      "axis_n" : 3,
      "axis_seq" : 4,
      "weights" : {

      },
      "debug_info" : "functional_1\/reflection_padding2d_7\/MirrorPad_transpose_1",
      "top" : "functional_1\/reflection_padding2d_7\/MirrorPad_transpose_1",
      "type" : "transpose",
      "name" : "functional_1\/reflection_padding2d_7\/MirrorPad_transpose_1"
    },
    {
      "name" : "functional_1\/reflection_padding2d_7\/MirrorPad_pad",
      "weights" : {

      },
      "pad_pad_mode" : 0,
      "pad_t" : 1,
      "pad_r" : 1,
      "pad_b" : 1,
      "type" : "general_padding",
      "pad_fill_mode" : 2,
      "bottom" : "functional_1\/reflection_padding2d_7\/MirrorPad_transpose_1",
      "pad_l" : 1,
      "debug_info" : "functional_1\/reflection_padding2d_7\/MirrorPad_pad",
      "pad_value" : 0,
      "top" : "functional_1\/reflection_padding2d_7\/MirrorPad_pad"
    },
    {
      "pad_r" : 0,
      "fused_relu" : 0,
      "fused_tanh" : 0,
      "debug_info" : "functional_1\/conv2d_7\/Conv2Dx",
      "pad_fill_mode" : 0,
      "pad_b" : 0,
      "pad_l" : 0,
      "top" : "functional_1\/conv2d_7\/Conv2Dx",
      "blob_weights" : 49,
      "K" : 256,
      "name" : "functional_1\/conv2d_7\/Conv2Dx",
      "has_batch_norm" : 0,
      "type" : "convolution",
      "n_groups" : 1,
      "pad_t" : 0,
      "has_biases" : 0,
      "C" : 256,
      "bottom" : "functional_1\/reflection_padding2d_7\/MirrorPad_pad",
      "weights" : {

      },
      "Nx" : 3,
      "pad_mode" : 0,
      "pad_value" : 0,
      "Ny" : 3,
      "n_parallel" : 1
    },
    {
      "axis_h" : 0,
      "axis_w" : 2,
      "bottom" : "functional_1\/conv2d_7\/Conv2Dx",
      "axis_k" : 1,
      "axis_n" : 3,
      "axis_seq" : 4,
      "weights" : {

      },
      "debug_info" : "functional_1\/conv2d_7\/Conv2D",
      "top" : "functional_1\/conv2d_7\/Conv2D",
      "type" : "transpose",
      "name" : "functional_1\/conv2d_7\/Conv2D"
    },
    {
      "top" : "functional_1\/conv2d_7\/BiasAdd\/ReadVariableOp",
      "w" : 256,
      "h" : 1,
      "name" : "functional_1\/conv2d_7\/BiasAdd\/ReadVariableOp",
      "nd_rank" : 1,
      "type" : "load_constant",
      "k" : 1,
      "bottom" : "",
      "debug_info" : "functional_1\/conv2d_7\/BiasAdd\/ReadVariableOp",
      "n" : 1,
      "weights" : {

      },
      "constant_blob" : 51
    },
    {
      "bottom" : "functional_1\/conv2d_7\/Conv2D,functional_1\/conv2d_7\/BiasAdd\/ReadVariableOp",
      "alpha" : 1,
      "operation" : 0,
      "weights" : {

      },
      "fused_relu" : 0,
      "debug_info" : "functional_1\/conv2d_7\/BiasAdd",
      "nd_mode" : true,
      "top" : "functional_1\/conv2d_7\/BiasAdd",
      "type" : "elementwise",
      "name" : "functional_1\/conv2d_7\/BiasAdd",
      "beta" : 0
    },
    {
      "axis_mode" : 4,
      "bottom" : "functional_1\/conv2d_7\/BiasAdd",
      "weights" : {

      },
      "mode" : 1,
      "nd_axis" : 1,
      "nd_mode" : true,
      "debug_info" : "functional_1\/instance_normalization_5\/Mean",
      "use_version" : 1,
      "top" : "functional_1\/conv2d_7\/BiasAdd1",
      "type" : "reduce",
      "name" : "functional_1\/instance_normalization_5\/Mean0"
    },
    {
      "axis_mode" : 2,
      "bottom" : "functional_1\/conv2d_7\/BiasAdd1",
      "weights" : {

      },
      "mode" : 1,
      "nd_axis" : 2,
      "nd_mode" : true,
      "debug_info" : "functional_1\/instance_normalization_5\/Mean",
      "use_version" : 1,
      "top" : "functional_1\/instance_normalization_5\/Mean",
      "type" : "reduce",
      "name" : "functional_1\/instance_normalization_5\/Mean"
    },
    {
      "axis_mode" : 4,
      "bottom" : "functional_1\/conv2d_7\/BiasAdd",
      "weights" : {

      },
      "mode" : 1,
      "nd_axis" : 1,
      "nd_mode" : true,
      "debug_info" : "functional_1\/instance_normalization_5\/reduce_std\/reduce_variance\/Mean",
      "use_version" : 1,
      "top" : "functional_1\/conv2d_7\/BiasAdd1",
      "type" : "reduce",
      "name" : "functional_1\/instance_normalization_5\/reduce_std\/reduce_variance\/Mean0"
    },
    {
      "axis_mode" : 2,
      "bottom" : "functional_1\/conv2d_7\/BiasAdd1",
      "weights" : {

      },
      "mode" : 1,
      "nd_axis" : 2,
      "nd_mode" : true,
      "debug_info" : "functional_1\/instance_normalization_5\/reduce_std\/reduce_variance\/Mean",
      "use_version" : 1,
      "top" : "functional_1\/instance_normalization_5\/reduce_std\/reduce_variance\/Mean",
      "type" : "reduce",
      "name" : "functional_1\/instance_normalization_5\/reduce_std\/reduce_variance\/Mean"
    },
    {
      "bottom" : "functional_1\/conv2d_7\/BiasAdd,functional_1\/instance_normalization_5\/Mean",
      "alpha" : 1,
      "operation" : 33,
      "weights" : {

      },
      "fused_relu" : 0,
      "debug_info" : "functional_1\/instance_normalization_5\/sub",
      "nd_mode" : true,
      "top" : "functional_1\/instance_normalization_5\/sub",
      "type" : "elementwise",
      "name" : "functional_1\/instance_normalization_5\/sub",
      "beta" : 0
    },
    {
      "bottom" : "functional_1\/conv2d_7\/BiasAdd,functional_1\/instance_normalization_5\/reduce_std\/reduce_variance\/Mean",
      "alpha" : 1,
      "operation" : 33,
      "weights" : {

      },
      "fused_relu" : 0,
      "debug_info" : "functional_1\/instance_normalization_5\/reduce_std\/reduce_variance\/sub",
      "nd_mode" : true,
      "top" : "functional_1\/instance_normalization_5\/reduce_std\/reduce_variance\/sub",
      "type" : "elementwise",
      "name" : "functional_1\/instance_normalization_5\/reduce_std\/reduce_variance\/sub",
      "beta" : 0
    },
    {
      "bottom" : "functional_1\/instance_normalization_5\/reduce_std\/reduce_variance\/sub",
      "alpha" : 2,
      "operation" : 13,
      "weights" : {

      },
      "fused_relu" : 0,
      "debug_info" : "functional_1\/instance_normalization_5\/reduce_std\/reduce_variance\/Square",
      "top" : "functional_1\/instance_normalization_5\/reduce_std\/reduce_variance\/Square",
      "type" : "elementwise",
      "name" : "functional_1\/instance_normalization_5\/reduce_std\/reduce_variance\/Square",
      "beta" : 0
    },
    {
      "axis_mode" : 4,
      "bottom" : "functional_1\/instance_normalization_5\/reduce_std\/reduce_variance\/Square",
      "weights" : {

      },
      "mode" : 1,
      "nd_axis" : 1,
      "nd_mode" : true,
      "debug_info" : "functional_1\/instance_normalization_5\/reduce_std\/reduce_variance\/Mean_1",
      "use_version" : 1,
      "top" : "functional_1\/instance_normalization_5\/reduce_std\/reduce_variance\/Square1",
      "type" : "reduce",
      "name" : "functional_1\/instance_normalization_5\/reduce_std\/reduce_variance\/Mean_10"
    },
    {
      "axis_mode" : 2,
      "bottom" : "functional_1\/instance_normalization_5\/reduce_std\/reduce_variance\/Square1",
      "weights" : {

      },
      "mode" : 1,
      "nd_axis" : 2,
      "nd_mode" : true,
      "debug_info" : "functional_1\/instance_normalization_5\/reduce_std\/reduce_variance\/Mean_1",
      "use_version" : 1,
      "top" : "functional_1\/instance_normalization_5\/reduce_std\/reduce_variance\/Mean_1",
      "type" : "reduce",
      "name" : "functional_1\/instance_normalization_5\/reduce_std\/reduce_variance\/Mean_1"
    },
    {
      "bottom" : "functional_1\/instance_normalization_5\/reduce_std\/reduce_variance\/Mean_1",
      "alpha" : 1,
      "operation" : 11,
      "weights" : {

      },
      "fused_relu" : 0,
      "debug_info" : "functional_1\/instance_normalization_5\/reduce_std\/Sqrt",
      "top" : "functional_1\/instance_normalization_5\/reduce_std\/Sqrt",
      "type" : "elementwise",
      "name" : "functional_1\/instance_normalization_5\/reduce_std\/Sqrt",
      "beta" : 0
    },
    {
      "bottom" : "functional_1\/instance_normalization_5\/reduce_std\/Sqrt",
      "alpha" : 9.9999997171806854e-10,
      "operation" : 0,
      "weights" : {

      },
      "fused_relu" : 0,
      "debug_info" : "functional_1\/instance_normalization_5\/add",
      "top" : "functional_1\/instance_normalization_5\/add",
      "type" : "elementwise",
      "name" : "functional_1\/instance_normalization_5\/add",
      "beta" : 0
    },
    {
      "bottom" : "functional_1\/instance_normalization_5\/sub,functional_1\/instance_normalization_5\/add",
      "alpha" : 1,
      "operation" : 102,
      "weights" : {

      },
      "fused_relu" : 0,
      "debug_info" : "functional_1\/instance_normalization_5\/truediv",
      "nd_mode" : true,
      "top" : "functional_1\/instance_normalization_5\/truediv",
      "type" : "elementwise",
      "name" : "functional_1\/instance_normalization_5\/truediv",
      "beta" : 0
    },
    {
      "top" : "functional_1\/instance_normalization_5\/Reshape",
      "w" : 256,
      "h" : 1,
      "name" : "functional_1\/instance_normalization_5\/Reshape",
      "nd_rank" : 4,
      "type" : "load_constant",
      "k" : 1,
      "bottom" : "",
      "debug_info" : "functional_1\/instance_normalization_5\/Reshape",
      "n" : 1,
      "weights" : {

      },
      "constant_blob" : 53
    },
    {
      "bottom" : "functional_1\/instance_normalization_5\/truediv,functional_1\/instance_normalization_5\/Reshape",
      "alpha" : 1,
      "operation" : 1,
      "weights" : {

      },
      "fused_relu" : 0,
      "debug_info" : "functional_1\/instance_normalization_5\/mul",
      "nd_mode" : true,
      "top" : "functional_1\/instance_normalization_5\/mul",
      "type" : "elementwise",
      "name" : "functional_1\/instance_normalization_5\/mul",
      "beta" : 0
    },
    {
      "top" : "functional_1\/instance_normalization_5\/Reshape_1",
      "w" : 256,
      "h" : 1,
      "name" : "functional_1\/instance_normalization_5\/Reshape_1",
      "nd_rank" : 4,
      "type" : "load_constant",
      "k" : 1,
      "bottom" : "",
      "debug_info" : "functional_1\/instance_normalization_5\/Reshape_1",
      "n" : 1,
      "weights" : {

      },
      "constant_blob" : 55
    },
    {
      "bottom" : "functional_1\/instance_normalization_5\/mul,functional_1\/instance_normalization_5\/Reshape_1",
      "alpha" : 1,
      "operation" : 0,
      "weights" : {

      },
      "fused_relu" : 0,
      "debug_info" : "functional_1\/instance_normalization_5\/add_1",
      "nd_mode" : true,
      "top" : "functional_1\/instance_normalization_5\/add_1",
      "type" : "elementwise",
      "name" : "functional_1\/instance_normalization_5\/add_1",
      "beta" : 0
    },
    {
      "bottom" : "functional_1\/instance_normalization_5\/add_1",
      "weights" : {

      },
      "mode" : 0,
      "debug_info" : "functional_1\/activation_4\/Relu",
      "top" : "functional_1\/activation_4\/Relu",
      "type" : "activation",
      "name" : "functional_1\/activation_4\/Relu"
    },
    {
      "axis_h" : 2,
      "axis_w" : 1,
      "bottom" : "functional_1\/activation_4\/Relu",
      "axis_k" : 0,
      "axis_n" : 3,
      "axis_seq" : 4,
      "weights" : {

      },
      "debug_info" : "functional_1\/reflection_padding2d_8\/MirrorPad_transpose_1",
      "top" : "functional_1\/reflection_padding2d_8\/MirrorPad_transpose_1",
      "type" : "transpose",
      "name" : "functional_1\/reflection_padding2d_8\/MirrorPad_transpose_1"
    },
    {
      "name" : "functional_1\/reflection_padding2d_8\/MirrorPad_pad",
      "weights" : {

      },
      "pad_pad_mode" : 0,
      "pad_t" : 1,
      "pad_r" : 1,
      "pad_b" : 1,
      "type" : "general_padding",
      "pad_fill_mode" : 2,
      "bottom" : "functional_1\/reflection_padding2d_8\/MirrorPad_transpose_1",
      "pad_l" : 1,
      "debug_info" : "functional_1\/reflection_padding2d_8\/MirrorPad_pad",
      "pad_value" : 0,
      "top" : "functional_1\/reflection_padding2d_8\/MirrorPad_pad"
    },
    {
      "pad_r" : 0,
      "fused_relu" : 0,
      "fused_tanh" : 0,
      "debug_info" : "functional_1\/conv2d_8\/Conv2Dx",
      "pad_fill_mode" : 0,
      "pad_b" : 0,
      "pad_l" : 0,
      "top" : "functional_1\/conv2d_8\/Conv2Dx",
      "blob_weights" : 57,
      "K" : 256,
      "name" : "functional_1\/conv2d_8\/Conv2Dx",
      "has_batch_norm" : 0,
      "type" : "convolution",
      "n_groups" : 1,
      "pad_t" : 0,
      "has_biases" : 0,
      "C" : 256,
      "bottom" : "functional_1\/reflection_padding2d_8\/MirrorPad_pad",
      "weights" : {

      },
      "Nx" : 3,
      "pad_mode" : 0,
      "pad_value" : 0,
      "Ny" : 3,
      "n_parallel" : 1
    },
    {
      "axis_h" : 0,
      "axis_w" : 2,
      "bottom" : "functional_1\/conv2d_8\/Conv2Dx",
      "axis_k" : 1,
      "axis_n" : 3,
      "axis_seq" : 4,
      "weights" : {

      },
      "debug_info" : "functional_1\/conv2d_8\/Conv2D",
      "top" : "functional_1\/conv2d_8\/Conv2D",
      "type" : "transpose",
      "name" : "functional_1\/conv2d_8\/Conv2D"
    },
    {
      "top" : "functional_1\/conv2d_8\/BiasAdd\/ReadVariableOp",
      "w" : 256,
      "h" : 1,
      "name" : "functional_1\/conv2d_8\/BiasAdd\/ReadVariableOp",
      "nd_rank" : 1,
      "type" : "load_constant",
      "k" : 1,
      "bottom" : "",
      "debug_info" : "functional_1\/conv2d_8\/BiasAdd\/ReadVariableOp",
      "n" : 1,
      "weights" : {

      },
      "constant_blob" : 59
    },
    {
      "bottom" : "functional_1\/conv2d_8\/Conv2D,functional_1\/conv2d_8\/BiasAdd\/ReadVariableOp",
      "alpha" : 1,
      "operation" : 0,
      "weights" : {

      },
      "fused_relu" : 0,
      "debug_info" : "functional_1\/conv2d_8\/BiasAdd",
      "nd_mode" : true,
      "top" : "functional_1\/conv2d_8\/BiasAdd",
      "type" : "elementwise",
      "name" : "functional_1\/conv2d_8\/BiasAdd",
      "beta" : 0
    },
    {
      "axis_mode" : 4,
      "bottom" : "functional_1\/conv2d_8\/BiasAdd",
      "weights" : {

      },
      "mode" : 1,
      "nd_axis" : 1,
      "nd_mode" : true,
      "debug_info" : "functional_1\/instance_normalization_6\/Mean",
      "use_version" : 1,
      "top" : "functional_1\/conv2d_8\/BiasAdd1",
      "type" : "reduce",
      "name" : "functional_1\/instance_normalization_6\/Mean0"
    },
    {
      "axis_mode" : 2,
      "bottom" : "functional_1\/conv2d_8\/BiasAdd1",
      "weights" : {

      },
      "mode" : 1,
      "nd_axis" : 2,
      "nd_mode" : true,
      "debug_info" : "functional_1\/instance_normalization_6\/Mean",
      "use_version" : 1,
      "top" : "functional_1\/instance_normalization_6\/Mean",
      "type" : "reduce",
      "name" : "functional_1\/instance_normalization_6\/Mean"
    },
    {
      "axis_mode" : 4,
      "bottom" : "functional_1\/conv2d_8\/BiasAdd",
      "weights" : {

      },
      "mode" : 1,
      "nd_axis" : 1,
      "nd_mode" : true,
      "debug_info" : "functional_1\/instance_normalization_6\/reduce_std\/reduce_variance\/Mean",
      "use_version" : 1,
      "top" : "functional_1\/conv2d_8\/BiasAdd1",
      "type" : "reduce",
      "name" : "functional_1\/instance_normalization_6\/reduce_std\/reduce_variance\/Mean0"
    },
    {
      "axis_mode" : 2,
      "bottom" : "functional_1\/conv2d_8\/BiasAdd1",
      "weights" : {

      },
      "mode" : 1,
      "nd_axis" : 2,
      "nd_mode" : true,
      "debug_info" : "functional_1\/instance_normalization_6\/reduce_std\/reduce_variance\/Mean",
      "use_version" : 1,
      "top" : "functional_1\/instance_normalization_6\/reduce_std\/reduce_variance\/Mean",
      "type" : "reduce",
      "name" : "functional_1\/instance_normalization_6\/reduce_std\/reduce_variance\/Mean"
    },
    {
      "bottom" : "functional_1\/conv2d_8\/BiasAdd,functional_1\/instance_normalization_6\/Mean",
      "alpha" : 1,
      "operation" : 33,
      "weights" : {

      },
      "fused_relu" : 0,
      "debug_info" : "functional_1\/instance_normalization_6\/sub",
      "nd_mode" : true,
      "top" : "functional_1\/instance_normalization_6\/sub",
      "type" : "elementwise",
      "name" : "functional_1\/instance_normalization_6\/sub",
      "beta" : 0
    },
    {
      "bottom" : "functional_1\/conv2d_8\/BiasAdd,functional_1\/instance_normalization_6\/reduce_std\/reduce_variance\/Mean",
      "alpha" : 1,
      "operation" : 33,
      "weights" : {

      },
      "fused_relu" : 0,
      "debug_info" : "functional_1\/instance_normalization_6\/reduce_std\/reduce_variance\/sub",
      "nd_mode" : true,
      "top" : "functional_1\/instance_normalization_6\/reduce_std\/reduce_variance\/sub",
      "type" : "elementwise",
      "name" : "functional_1\/instance_normalization_6\/reduce_std\/reduce_variance\/sub",
      "beta" : 0
    },
    {
      "bottom" : "functional_1\/instance_normalization_6\/reduce_std\/reduce_variance\/sub",
      "alpha" : 2,
      "operation" : 13,
      "weights" : {

      },
      "fused_relu" : 0,
      "debug_info" : "functional_1\/instance_normalization_6\/reduce_std\/reduce_variance\/Square",
      "top" : "functional_1\/instance_normalization_6\/reduce_std\/reduce_variance\/Square",
      "type" : "elementwise",
      "name" : "functional_1\/instance_normalization_6\/reduce_std\/reduce_variance\/Square",
      "beta" : 0
    },
    {
      "axis_mode" : 4,
      "bottom" : "functional_1\/instance_normalization_6\/reduce_std\/reduce_variance\/Square",
      "weights" : {

      },
      "mode" : 1,
      "nd_axis" : 1,
      "nd_mode" : true,
      "debug_info" : "functional_1\/instance_normalization_6\/reduce_std\/reduce_variance\/Mean_1",
      "use_version" : 1,
      "top" : "functional_1\/instance_normalization_6\/reduce_std\/reduce_variance\/Square1",
      "type" : "reduce",
      "name" : "functional_1\/instance_normalization_6\/reduce_std\/reduce_variance\/Mean_10"
    },
    {
      "axis_mode" : 2,
      "bottom" : "functional_1\/instance_normalization_6\/reduce_std\/reduce_variance\/Square1",
      "weights" : {

      },
      "mode" : 1,
      "nd_axis" : 2,
      "nd_mode" : true,
      "debug_info" : "functional_1\/instance_normalization_6\/reduce_std\/reduce_variance\/Mean_1",
      "use_version" : 1,
      "top" : "functional_1\/instance_normalization_6\/reduce_std\/reduce_variance\/Mean_1",
      "type" : "reduce",
      "name" : "functional_1\/instance_normalization_6\/reduce_std\/reduce_variance\/Mean_1"
    },
    {
      "bottom" : "functional_1\/instance_normalization_6\/reduce_std\/reduce_variance\/Mean_1",
      "alpha" : 1,
      "operation" : 11,
      "weights" : {

      },
      "fused_relu" : 0,
      "debug_info" : "functional_1\/instance_normalization_6\/reduce_std\/Sqrt",
      "top" : "functional_1\/instance_normalization_6\/reduce_std\/Sqrt",
      "type" : "elementwise",
      "name" : "functional_1\/instance_normalization_6\/reduce_std\/Sqrt",
      "beta" : 0
    },
    {
      "bottom" : "functional_1\/instance_normalization_6\/reduce_std\/Sqrt",
      "alpha" : 9.9999997171806854e-10,
      "operation" : 0,
      "weights" : {

      },
      "fused_relu" : 0,
      "debug_info" : "functional_1\/instance_normalization_6\/add",
      "top" : "functional_1\/instance_normalization_6\/add",
      "type" : "elementwise",
      "name" : "functional_1\/instance_normalization_6\/add",
      "beta" : 0
    },
    {
      "bottom" : "functional_1\/instance_normalization_6\/sub,functional_1\/instance_normalization_6\/add",
      "alpha" : 1,
      "operation" : 102,
      "weights" : {

      },
      "fused_relu" : 0,
      "debug_info" : "functional_1\/instance_normalization_6\/truediv",
      "nd_mode" : true,
      "top" : "functional_1\/instance_normalization_6\/truediv",
      "type" : "elementwise",
      "name" : "functional_1\/instance_normalization_6\/truediv",
      "beta" : 0
    },
    {
      "top" : "functional_1\/instance_normalization_6\/Reshape",
      "w" : 256,
      "h" : 1,
      "name" : "functional_1\/instance_normalization_6\/Reshape",
      "nd_rank" : 4,
      "type" : "load_constant",
      "k" : 1,
      "bottom" : "",
      "debug_info" : "functional_1\/instance_normalization_6\/Reshape",
      "n" : 1,
      "weights" : {

      },
      "constant_blob" : 61
    },
    {
      "bottom" : "functional_1\/instance_normalization_6\/truediv,functional_1\/instance_normalization_6\/Reshape",
      "alpha" : 1,
      "operation" : 1,
      "weights" : {

      },
      "fused_relu" : 0,
      "debug_info" : "functional_1\/instance_normalization_6\/mul",
      "nd_mode" : true,
      "top" : "functional_1\/instance_normalization_6\/mul",
      "type" : "elementwise",
      "name" : "functional_1\/instance_normalization_6\/mul",
      "beta" : 0
    },
    {
      "top" : "functional_1\/instance_normalization_6\/Reshape_1",
      "w" : 256,
      "h" : 1,
      "name" : "functional_1\/instance_normalization_6\/Reshape_1",
      "nd_rank" : 4,
      "type" : "load_constant",
      "k" : 1,
      "bottom" : "",
      "debug_info" : "functional_1\/instance_normalization_6\/Reshape_1",
      "n" : 1,
      "weights" : {

      },
      "constant_blob" : 63
    },
    {
      "bottom" : "functional_1\/instance_normalization_6\/mul,functional_1\/instance_normalization_6\/Reshape_1",
      "alpha" : 1,
      "operation" : 0,
      "weights" : {

      },
      "fused_relu" : 0,
      "debug_info" : "functional_1\/instance_normalization_6\/add_1",
      "nd_mode" : true,
      "top" : "functional_1\/instance_normalization_6\/add_1",
      "type" : "elementwise",
      "name" : "functional_1\/instance_normalization_6\/add_1",
      "beta" : 0
    },
    {
      "bottom" : "functional_1\/instance_normalization_6\/add_1,functional_1\/add\/add",
      "alpha" : 1,
      "operation" : 0,
      "weights" : {

      },
      "fused_relu" : 0,
      "debug_info" : "functional_1\/add_1\/add",
      "top" : "functional_1\/add_1\/add",
      "type" : "elementwise",
      "name" : "functional_1\/add_1\/add",
      "beta" : 0
    },
    {
      "axis_h" : 2,
      "axis_w" : 1,
      "bottom" : "functional_1\/add_1\/add",
      "axis_k" : 0,
      "axis_n" : 3,
      "axis_seq" : 4,
      "weights" : {

      },
      "debug_info" : "functional_1\/reflection_padding2d_9\/MirrorPad_transpose_1",
      "top" : "functional_1\/reflection_padding2d_9\/MirrorPad_transpose_1",
      "type" : "transpose",
      "name" : "functional_1\/reflection_padding2d_9\/MirrorPad_transpose_1"
    },
    {
      "name" : "functional_1\/reflection_padding2d_9\/MirrorPad_pad",
      "weights" : {

      },
      "pad_pad_mode" : 0,
      "pad_t" : 1,
      "pad_r" : 1,
      "pad_b" : 1,
      "type" : "general_padding",
      "pad_fill_mode" : 2,
      "bottom" : "functional_1\/reflection_padding2d_9\/MirrorPad_transpose_1",
      "pad_l" : 1,
      "debug_info" : "functional_1\/reflection_padding2d_9\/MirrorPad_pad",
      "pad_value" : 0,
      "top" : "functional_1\/reflection_padding2d_9\/MirrorPad_pad"
    },
    {
      "pad_r" : 0,
      "fused_relu" : 0,
      "fused_tanh" : 0,
      "debug_info" : "functional_1\/conv2d_9\/Conv2Dx",
      "pad_fill_mode" : 0,
      "pad_b" : 0,
      "pad_l" : 0,
      "top" : "functional_1\/conv2d_9\/Conv2Dx",
      "blob_weights" : 65,
      "K" : 256,
      "name" : "functional_1\/conv2d_9\/Conv2Dx",
      "has_batch_norm" : 0,
      "type" : "convolution",
      "n_groups" : 1,
      "pad_t" : 0,
      "has_biases" : 0,
      "C" : 256,
      "bottom" : "functional_1\/reflection_padding2d_9\/MirrorPad_pad",
      "weights" : {

      },
      "Nx" : 3,
      "pad_mode" : 0,
      "pad_value" : 0,
      "Ny" : 3,
      "n_parallel" : 1
    },
    {
      "axis_h" : 0,
      "axis_w" : 2,
      "bottom" : "functional_1\/conv2d_9\/Conv2Dx",
      "axis_k" : 1,
      "axis_n" : 3,
      "axis_seq" : 4,
      "weights" : {

      },
      "debug_info" : "functional_1\/conv2d_9\/Conv2D",
      "top" : "functional_1\/conv2d_9\/Conv2D",
      "type" : "transpose",
      "name" : "functional_1\/conv2d_9\/Conv2D"
    },
    {
      "top" : "functional_1\/conv2d_9\/BiasAdd\/ReadVariableOp",
      "w" : 256,
      "h" : 1,
      "name" : "functional_1\/conv2d_9\/BiasAdd\/ReadVariableOp",
      "nd_rank" : 1,
      "type" : "load_constant",
      "k" : 1,
      "bottom" : "",
      "debug_info" : "functional_1\/conv2d_9\/BiasAdd\/ReadVariableOp",
      "n" : 1,
      "weights" : {

      },
      "constant_blob" : 67
    },
    {
      "bottom" : "functional_1\/conv2d_9\/Conv2D,functional_1\/conv2d_9\/BiasAdd\/ReadVariableOp",
      "alpha" : 1,
      "operation" : 0,
      "weights" : {

      },
      "fused_relu" : 0,
      "debug_info" : "functional_1\/conv2d_9\/BiasAdd",
      "nd_mode" : true,
      "top" : "functional_1\/conv2d_9\/BiasAdd",
      "type" : "elementwise",
      "name" : "functional_1\/conv2d_9\/BiasAdd",
      "beta" : 0
    },
    {
      "axis_mode" : 4,
      "bottom" : "functional_1\/conv2d_9\/BiasAdd",
      "weights" : {

      },
      "mode" : 1,
      "nd_axis" : 1,
      "nd_mode" : true,
      "debug_info" : "functional_1\/instance_normalization_7\/Mean",
      "use_version" : 1,
      "top" : "functional_1\/conv2d_9\/BiasAdd1",
      "type" : "reduce",
      "name" : "functional_1\/instance_normalization_7\/Mean0"
    },
    {
      "axis_mode" : 2,
      "bottom" : "functional_1\/conv2d_9\/BiasAdd1",
      "weights" : {

      },
      "mode" : 1,
      "nd_axis" : 2,
      "nd_mode" : true,
      "debug_info" : "functional_1\/instance_normalization_7\/Mean",
      "use_version" : 1,
      "top" : "functional_1\/instance_normalization_7\/Mean",
      "type" : "reduce",
      "name" : "functional_1\/instance_normalization_7\/Mean"
    },
    {
      "axis_mode" : 4,
      "bottom" : "functional_1\/conv2d_9\/BiasAdd",
      "weights" : {

      },
      "mode" : 1,
      "nd_axis" : 1,
      "nd_mode" : true,
      "debug_info" : "functional_1\/instance_normalization_7\/reduce_std\/reduce_variance\/Mean",
      "use_version" : 1,
      "top" : "functional_1\/conv2d_9\/BiasAdd1",
      "type" : "reduce",
      "name" : "functional_1\/instance_normalization_7\/reduce_std\/reduce_variance\/Mean0"
    },
    {
      "axis_mode" : 2,
      "bottom" : "functional_1\/conv2d_9\/BiasAdd1",
      "weights" : {

      },
      "mode" : 1,
      "nd_axis" : 2,
      "nd_mode" : true,
      "debug_info" : "functional_1\/instance_normalization_7\/reduce_std\/reduce_variance\/Mean",
      "use_version" : 1,
      "top" : "functional_1\/instance_normalization_7\/reduce_std\/reduce_variance\/Mean",
      "type" : "reduce",
      "name" : "functional_1\/instance_normalization_7\/reduce_std\/reduce_variance\/Mean"
    },
    {
      "bottom" : "functional_1\/conv2d_9\/BiasAdd,functional_1\/instance_normalization_7\/Mean",
      "alpha" : 1,
      "operation" : 33,
      "weights" : {

      },
      "fused_relu" : 0,
      "debug_info" : "functional_1\/instance_normalization_7\/sub",
      "nd_mode" : true,
      "top" : "functional_1\/instance_normalization_7\/sub",
      "type" : "elementwise",
      "name" : "functional_1\/instance_normalization_7\/sub",
      "beta" : 0
    },
    {
      "bottom" : "functional_1\/conv2d_9\/BiasAdd,functional_1\/instance_normalization_7\/reduce_std\/reduce_variance\/Mean",
      "alpha" : 1,
      "operation" : 33,
      "weights" : {

      },
      "fused_relu" : 0,
      "debug_info" : "functional_1\/instance_normalization_7\/reduce_std\/reduce_variance\/sub",
      "nd_mode" : true,
      "top" : "functional_1\/instance_normalization_7\/reduce_std\/reduce_variance\/sub",
      "type" : "elementwise",
      "name" : "functional_1\/instance_normalization_7\/reduce_std\/reduce_variance\/sub",
      "beta" : 0
    },
    {
      "bottom" : "functional_1\/instance_normalization_7\/reduce_std\/reduce_variance\/sub",
      "alpha" : 2,
      "operation" : 13,
      "weights" : {

      },
      "fused_relu" : 0,
      "debug_info" : "functional_1\/instance_normalization_7\/reduce_std\/reduce_variance\/Square",
      "top" : "functional_1\/instance_normalization_7\/reduce_std\/reduce_variance\/Square",
      "type" : "elementwise",
      "name" : "functional_1\/instance_normalization_7\/reduce_std\/reduce_variance\/Square",
      "beta" : 0
    },
    {
      "axis_mode" : 4,
      "bottom" : "functional_1\/instance_normalization_7\/reduce_std\/reduce_variance\/Square",
      "weights" : {

      },
      "mode" : 1,
      "nd_axis" : 1,
      "nd_mode" : true,
      "debug_info" : "functional_1\/instance_normalization_7\/reduce_std\/reduce_variance\/Mean_1",
      "use_version" : 1,
      "top" : "functional_1\/instance_normalization_7\/reduce_std\/reduce_variance\/Square1",
      "type" : "reduce",
      "name" : "functional_1\/instance_normalization_7\/reduce_std\/reduce_variance\/Mean_10"
    },
    {
      "axis_mode" : 2,
      "bottom" : "functional_1\/instance_normalization_7\/reduce_std\/reduce_variance\/Square1",
      "weights" : {

      },
      "mode" : 1,
      "nd_axis" : 2,
      "nd_mode" : true,
      "debug_info" : "functional_1\/instance_normalization_7\/reduce_std\/reduce_variance\/Mean_1",
      "use_version" : 1,
      "top" : "functional_1\/instance_normalization_7\/reduce_std\/reduce_variance\/Mean_1",
      "type" : "reduce",
      "name" : "functional_1\/instance_normalization_7\/reduce_std\/reduce_variance\/Mean_1"
    },
    {
      "bottom" : "functional_1\/instance_normalization_7\/reduce_std\/reduce_variance\/Mean_1",
      "alpha" : 1,
      "operation" : 11,
      "weights" : {

      },
      "fused_relu" : 0,
      "debug_info" : "functional_1\/instance_normalization_7\/reduce_std\/Sqrt",
      "top" : "functional_1\/instance_normalization_7\/reduce_std\/Sqrt",
      "type" : "elementwise",
      "name" : "functional_1\/instance_normalization_7\/reduce_std\/Sqrt",
      "beta" : 0
    },
    {
      "bottom" : "functional_1\/instance_normalization_7\/reduce_std\/Sqrt",
      "alpha" : 9.9999997171806854e-10,
      "operation" : 0,
      "weights" : {

      },
      "fused_relu" : 0,
      "debug_info" : "functional_1\/instance_normalization_7\/add",
      "top" : "functional_1\/instance_normalization_7\/add",
      "type" : "elementwise",
      "name" : "functional_1\/instance_normalization_7\/add",
      "beta" : 0
    },
    {
      "bottom" : "functional_1\/instance_normalization_7\/sub,functional_1\/instance_normalization_7\/add",
      "alpha" : 1,
      "operation" : 102,
      "weights" : {

      },
      "fused_relu" : 0,
      "debug_info" : "functional_1\/instance_normalization_7\/truediv",
      "nd_mode" : true,
      "top" : "functional_1\/instance_normalization_7\/truediv",
      "type" : "elementwise",
      "name" : "functional_1\/instance_normalization_7\/truediv",
      "beta" : 0
    },
    {
      "top" : "functional_1\/instance_normalization_7\/Reshape",
      "w" : 256,
      "h" : 1,
      "name" : "functional_1\/instance_normalization_7\/Reshape",
      "nd_rank" : 4,
      "type" : "load_constant",
      "k" : 1,
      "bottom" : "",
      "debug_info" : "functional_1\/instance_normalization_7\/Reshape",
      "n" : 1,
      "weights" : {

      },
      "constant_blob" : 69
    },
    {
      "bottom" : "functional_1\/instance_normalization_7\/truediv,functional_1\/instance_normalization_7\/Reshape",
      "alpha" : 1,
      "operation" : 1,
      "weights" : {

      },
      "fused_relu" : 0,
      "debug_info" : "functional_1\/instance_normalization_7\/mul",
      "nd_mode" : true,
      "top" : "functional_1\/instance_normalization_7\/mul",
      "type" : "elementwise",
      "name" : "functional_1\/instance_normalization_7\/mul",
      "beta" : 0
    },
    {
      "top" : "functional_1\/instance_normalization_7\/Reshape_1",
      "w" : 256,
      "h" : 1,
      "name" : "functional_1\/instance_normalization_7\/Reshape_1",
      "nd_rank" : 4,
      "type" : "load_constant",
      "k" : 1,
      "bottom" : "",
      "debug_info" : "functional_1\/instance_normalization_7\/Reshape_1",
      "n" : 1,
      "weights" : {

      },
      "constant_blob" : 71
    },
    {
      "bottom" : "functional_1\/instance_normalization_7\/mul,functional_1\/instance_normalization_7\/Reshape_1",
      "alpha" : 1,
      "operation" : 0,
      "weights" : {

      },
      "fused_relu" : 0,
      "debug_info" : "functional_1\/instance_normalization_7\/add_1",
      "nd_mode" : true,
      "top" : "functional_1\/instance_normalization_7\/add_1",
      "type" : "elementwise",
      "name" : "functional_1\/instance_normalization_7\/add_1",
      "beta" : 0
    },
    {
      "bottom" : "functional_1\/instance_normalization_7\/add_1",
      "weights" : {

      },
      "mode" : 0,
      "debug_info" : "functional_1\/activation_5\/Relu",
      "top" : "functional_1\/activation_5\/Relu",
      "type" : "activation",
      "name" : "functional_1\/activation_5\/Relu"
    },
    {
      "axis_h" : 2,
      "axis_w" : 1,
      "bottom" : "functional_1\/activation_5\/Relu",
      "axis_k" : 0,
      "axis_n" : 3,
      "axis_seq" : 4,
      "weights" : {

      },
      "debug_info" : "functional_1\/reflection_padding2d_10\/MirrorPad_transpose_1",
      "top" : "functional_1\/reflection_padding2d_10\/MirrorPad_transpose_1",
      "type" : "transpose",
      "name" : "functional_1\/reflection_padding2d_10\/MirrorPad_transpose_1"
    },
    {
      "name" : "functional_1\/reflection_padding2d_10\/MirrorPad_pad",
      "weights" : {

      },
      "pad_pad_mode" : 0,
      "pad_t" : 1,
      "pad_r" : 1,
      "pad_b" : 1,
      "type" : "general_padding",
      "pad_fill_mode" : 2,
      "bottom" : "functional_1\/reflection_padding2d_10\/MirrorPad_transpose_1",
      "pad_l" : 1,
      "debug_info" : "functional_1\/reflection_padding2d_10\/MirrorPad_pad",
      "pad_value" : 0,
      "top" : "functional_1\/reflection_padding2d_10\/MirrorPad_pad"
    },
    {
      "pad_r" : 0,
      "fused_relu" : 0,
      "fused_tanh" : 0,
      "debug_info" : "functional_1\/conv2d_10\/Conv2Dx",
      "pad_fill_mode" : 0,
      "pad_b" : 0,
      "pad_l" : 0,
      "top" : "functional_1\/conv2d_10\/Conv2Dx",
      "blob_weights" : 73,
      "K" : 256,
      "name" : "functional_1\/conv2d_10\/Conv2Dx",
      "has_batch_norm" : 0,
      "type" : "convolution",
      "n_groups" : 1,
      "pad_t" : 0,
      "has_biases" : 0,
      "C" : 256,
      "bottom" : "functional_1\/reflection_padding2d_10\/MirrorPad_pad",
      "weights" : {

      },
      "Nx" : 3,
      "pad_mode" : 0,
      "pad_value" : 0,
      "Ny" : 3,
      "n_parallel" : 1
    },
    {
      "axis_h" : 0,
      "axis_w" : 2,
      "bottom" : "functional_1\/conv2d_10\/Conv2Dx",
      "axis_k" : 1,
      "axis_n" : 3,
      "axis_seq" : 4,
      "weights" : {

      },
      "debug_info" : "functional_1\/conv2d_10\/Conv2D",
      "top" : "functional_1\/conv2d_10\/Conv2D",
      "type" : "transpose",
      "name" : "functional_1\/conv2d_10\/Conv2D"
    },
    {
      "top" : "functional_1\/conv2d_10\/BiasAdd\/ReadVariableOp",
      "w" : 256,
      "h" : 1,
      "name" : "functional_1\/conv2d_10\/BiasAdd\/ReadVariableOp",
      "nd_rank" : 1,
      "type" : "load_constant",
      "k" : 1,
      "bottom" : "",
      "debug_info" : "functional_1\/conv2d_10\/BiasAdd\/ReadVariableOp",
      "n" : 1,
      "weights" : {

      },
      "constant_blob" : 75
    },
    {
      "bottom" : "functional_1\/conv2d_10\/Conv2D,functional_1\/conv2d_10\/BiasAdd\/ReadVariableOp",
      "alpha" : 1,
      "operation" : 0,
      "weights" : {

      },
      "fused_relu" : 0,
      "debug_info" : "functional_1\/conv2d_10\/BiasAdd",
      "nd_mode" : true,
      "top" : "functional_1\/conv2d_10\/BiasAdd",
      "type" : "elementwise",
      "name" : "functional_1\/conv2d_10\/BiasAdd",
      "beta" : 0
    },
    {
      "axis_mode" : 4,
      "bottom" : "functional_1\/conv2d_10\/BiasAdd",
      "weights" : {

      },
      "mode" : 1,
      "nd_axis" : 1,
      "nd_mode" : true,
      "debug_info" : "functional_1\/instance_normalization_8\/Mean",
      "use_version" : 1,
      "top" : "functional_1\/conv2d_10\/BiasAdd1",
      "type" : "reduce",
      "name" : "functional_1\/instance_normalization_8\/Mean0"
    },
    {
      "axis_mode" : 2,
      "bottom" : "functional_1\/conv2d_10\/BiasAdd1",
      "weights" : {

      },
      "mode" : 1,
      "nd_axis" : 2,
      "nd_mode" : true,
      "debug_info" : "functional_1\/instance_normalization_8\/Mean",
      "use_version" : 1,
      "top" : "functional_1\/instance_normalization_8\/Mean",
      "type" : "reduce",
      "name" : "functional_1\/instance_normalization_8\/Mean"
    },
    {
      "axis_mode" : 4,
      "bottom" : "functional_1\/conv2d_10\/BiasAdd",
      "weights" : {

      },
      "mode" : 1,
      "nd_axis" : 1,
      "nd_mode" : true,
      "debug_info" : "functional_1\/instance_normalization_8\/reduce_std\/reduce_variance\/Mean",
      "use_version" : 1,
      "top" : "functional_1\/conv2d_10\/BiasAdd1",
      "type" : "reduce",
      "name" : "functional_1\/instance_normalization_8\/reduce_std\/reduce_variance\/Mean0"
    },
    {
      "axis_mode" : 2,
      "bottom" : "functional_1\/conv2d_10\/BiasAdd1",
      "weights" : {

      },
      "mode" : 1,
      "nd_axis" : 2,
      "nd_mode" : true,
      "debug_info" : "functional_1\/instance_normalization_8\/reduce_std\/reduce_variance\/Mean",
      "use_version" : 1,
      "top" : "functional_1\/instance_normalization_8\/reduce_std\/reduce_variance\/Mean",
      "type" : "reduce",
      "name" : "functional_1\/instance_normalization_8\/reduce_std\/reduce_variance\/Mean"
    },
    {
      "bottom" : "functional_1\/conv2d_10\/BiasAdd,functional_1\/instance_normalization_8\/Mean",
      "alpha" : 1,
      "operation" : 33,
      "weights" : {

      },
      "fused_relu" : 0,
      "debug_info" : "functional_1\/instance_normalization_8\/sub",
      "nd_mode" : true,
      "top" : "functional_1\/instance_normalization_8\/sub",
      "type" : "elementwise",
      "name" : "functional_1\/instance_normalization_8\/sub",
      "beta" : 0
    },
    {
      "bottom" : "functional_1\/conv2d_10\/BiasAdd,functional_1\/instance_normalization_8\/reduce_std\/reduce_variance\/Mean",
      "alpha" : 1,
      "operation" : 33,
      "weights" : {

      },
      "fused_relu" : 0,
      "debug_info" : "functional_1\/instance_normalization_8\/reduce_std\/reduce_variance\/sub",
      "nd_mode" : true,
      "top" : "functional_1\/instance_normalization_8\/reduce_std\/reduce_variance\/sub",
      "type" : "elementwise",
      "name" : "functional_1\/instance_normalization_8\/reduce_std\/reduce_variance\/sub",
      "beta" : 0
    },
    {
      "bottom" : "functional_1\/instance_normalization_8\/reduce_std\/reduce_variance\/sub",
      "alpha" : 2,
      "operation" : 13,
      "weights" : {

      },
      "fused_relu" : 0,
      "debug_info" : "functional_1\/instance_normalization_8\/reduce_std\/reduce_variance\/Square",
      "top" : "functional_1\/instance_normalization_8\/reduce_std\/reduce_variance\/Square",
      "type" : "elementwise",
      "name" : "functional_1\/instance_normalization_8\/reduce_std\/reduce_variance\/Square",
      "beta" : 0
    },
    {
      "axis_mode" : 4,
      "bottom" : "functional_1\/instance_normalization_8\/reduce_std\/reduce_variance\/Square",
      "weights" : {

      },
      "mode" : 1,
      "nd_axis" : 1,
      "nd_mode" : true,
      "debug_info" : "functional_1\/instance_normalization_8\/reduce_std\/reduce_variance\/Mean_1",
      "use_version" : 1,
      "top" : "functional_1\/instance_normalization_8\/reduce_std\/reduce_variance\/Square1",
      "type" : "reduce",
      "name" : "functional_1\/instance_normalization_8\/reduce_std\/reduce_variance\/Mean_10"
    },
    {
      "axis_mode" : 2,
      "bottom" : "functional_1\/instance_normalization_8\/reduce_std\/reduce_variance\/Square1",
      "weights" : {

      },
      "mode" : 1,
      "nd_axis" : 2,
      "nd_mode" : true,
      "debug_info" : "functional_1\/instance_normalization_8\/reduce_std\/reduce_variance\/Mean_1",
      "use_version" : 1,
      "top" : "functional_1\/instance_normalization_8\/reduce_std\/reduce_variance\/Mean_1",
      "type" : "reduce",
      "name" : "functional_1\/instance_normalization_8\/reduce_std\/reduce_variance\/Mean_1"
    },
    {
      "bottom" : "functional_1\/instance_normalization_8\/reduce_std\/reduce_variance\/Mean_1",
      "alpha" : 1,
      "operation" : 11,
      "weights" : {

      },
      "fused_relu" : 0,
      "debug_info" : "functional_1\/instance_normalization_8\/reduce_std\/Sqrt",
      "top" : "functional_1\/instance_normalization_8\/reduce_std\/Sqrt",
      "type" : "elementwise",
      "name" : "functional_1\/instance_normalization_8\/reduce_std\/Sqrt",
      "beta" : 0
    },
    {
      "bottom" : "functional_1\/instance_normalization_8\/reduce_std\/Sqrt",
      "alpha" : 9.9999997171806854e-10,
      "operation" : 0,
      "weights" : {

      },
      "fused_relu" : 0,
      "debug_info" : "functional_1\/instance_normalization_8\/add",
      "top" : "functional_1\/instance_normalization_8\/add",
      "type" : "elementwise",
      "name" : "functional_1\/instance_normalization_8\/add",
      "beta" : 0
    },
    {
      "bottom" : "functional_1\/instance_normalization_8\/sub,functional_1\/instance_normalization_8\/add",
      "alpha" : 1,
      "operation" : 102,
      "weights" : {

      },
      "fused_relu" : 0,
      "debug_info" : "functional_1\/instance_normalization_8\/truediv",
      "nd_mode" : true,
      "top" : "functional_1\/instance_normalization_8\/truediv",
      "type" : "elementwise",
      "name" : "functional_1\/instance_normalization_8\/truediv",
      "beta" : 0
    },
    {
      "top" : "functional_1\/instance_normalization_8\/Reshape",
      "w" : 256,
      "h" : 1,
      "name" : "functional_1\/instance_normalization_8\/Reshape",
      "nd_rank" : 4,
      "type" : "load_constant",
      "k" : 1,
      "bottom" : "",
      "debug_info" : "functional_1\/instance_normalization_8\/Reshape",
      "n" : 1,
      "weights" : {

      },
      "constant_blob" : 77
    },
    {
      "bottom" : "functional_1\/instance_normalization_8\/truediv,functional_1\/instance_normalization_8\/Reshape",
      "alpha" : 1,
      "operation" : 1,
      "weights" : {

      },
      "fused_relu" : 0,
      "debug_info" : "functional_1\/instance_normalization_8\/mul",
      "nd_mode" : true,
      "top" : "functional_1\/instance_normalization_8\/mul",
      "type" : "elementwise",
      "name" : "functional_1\/instance_normalization_8\/mul",
      "beta" : 0
    },
    {
      "top" : "functional_1\/instance_normalization_8\/Reshape_1",
      "w" : 256,
      "h" : 1,
      "name" : "functional_1\/instance_normalization_8\/Reshape_1",
      "nd_rank" : 4,
      "type" : "load_constant",
      "k" : 1,
      "bottom" : "",
      "debug_info" : "functional_1\/instance_normalization_8\/Reshape_1",
      "n" : 1,
      "weights" : {

      },
      "constant_blob" : 79
    },
    {
      "bottom" : "functional_1\/instance_normalization_8\/mul,functional_1\/instance_normalization_8\/Reshape_1",
      "alpha" : 1,
      "operation" : 0,
      "weights" : {

      },
      "fused_relu" : 0,
      "debug_info" : "functional_1\/instance_normalization_8\/add_1",
      "nd_mode" : true,
      "top" : "functional_1\/instance_normalization_8\/add_1",
      "type" : "elementwise",
      "name" : "functional_1\/instance_normalization_8\/add_1",
      "beta" : 0
    },
    {
      "bottom" : "functional_1\/instance_normalization_8\/add_1,functional_1\/add_1\/add",
      "alpha" : 1,
      "operation" : 0,
      "weights" : {

      },
      "fused_relu" : 0,
      "debug_info" : "functional_1\/add_2\/add",
      "top" : "functional_1\/add_2\/add",
      "type" : "elementwise",
      "name" : "functional_1\/add_2\/add",
      "beta" : 0
    },
    {
      "axis_h" : 2,
      "axis_w" : 1,
      "bottom" : "functional_1\/add_2\/add",
      "axis_k" : 0,
      "axis_n" : 3,
      "axis_seq" : 4,
      "weights" : {

      },
      "debug_info" : "functional_1\/reflection_padding2d_11\/MirrorPad_transpose_1",
      "top" : "functional_1\/reflection_padding2d_11\/MirrorPad_transpose_1",
      "type" : "transpose",
      "name" : "functional_1\/reflection_padding2d_11\/MirrorPad_transpose_1"
    },
    {
      "name" : "functional_1\/reflection_padding2d_11\/MirrorPad_pad",
      "weights" : {

      },
      "pad_pad_mode" : 0,
      "pad_t" : 1,
      "pad_r" : 1,
      "pad_b" : 1,
      "type" : "general_padding",
      "pad_fill_mode" : 2,
      "bottom" : "functional_1\/reflection_padding2d_11\/MirrorPad_transpose_1",
      "pad_l" : 1,
      "debug_info" : "functional_1\/reflection_padding2d_11\/MirrorPad_pad",
      "pad_value" : 0,
      "top" : "functional_1\/reflection_padding2d_11\/MirrorPad_pad"
    },
    {
      "pad_r" : 0,
      "fused_relu" : 0,
      "fused_tanh" : 0,
      "debug_info" : "functional_1\/conv2d_11\/Conv2Dx",
      "pad_fill_mode" : 0,
      "pad_b" : 0,
      "pad_l" : 0,
      "top" : "functional_1\/conv2d_11\/Conv2Dx",
      "blob_weights" : 81,
      "K" : 256,
      "name" : "functional_1\/conv2d_11\/Conv2Dx",
      "has_batch_norm" : 0,
      "type" : "convolution",
      "n_groups" : 1,
      "pad_t" : 0,
      "has_biases" : 0,
      "C" : 256,
      "bottom" : "functional_1\/reflection_padding2d_11\/MirrorPad_pad",
      "weights" : {

      },
      "Nx" : 3,
      "pad_mode" : 0,
      "pad_value" : 0,
      "Ny" : 3,
      "n_parallel" : 1
    },
    {
      "axis_h" : 0,
      "axis_w" : 2,
      "bottom" : "functional_1\/conv2d_11\/Conv2Dx",
      "axis_k" : 1,
      "axis_n" : 3,
      "axis_seq" : 4,
      "weights" : {

      },
      "debug_info" : "functional_1\/conv2d_11\/Conv2D",
      "top" : "functional_1\/conv2d_11\/Conv2D",
      "type" : "transpose",
      "name" : "functional_1\/conv2d_11\/Conv2D"
    },
    {
      "top" : "functional_1\/conv2d_11\/BiasAdd\/ReadVariableOp",
      "w" : 256,
      "h" : 1,
      "name" : "functional_1\/conv2d_11\/BiasAdd\/ReadVariableOp",
      "nd_rank" : 1,
      "type" : "load_constant",
      "k" : 1,
      "bottom" : "",
      "debug_info" : "functional_1\/conv2d_11\/BiasAdd\/ReadVariableOp",
      "n" : 1,
      "weights" : {

      },
      "constant_blob" : 83
    },
    {
      "bottom" : "functional_1\/conv2d_11\/Conv2D,functional_1\/conv2d_11\/BiasAdd\/ReadVariableOp",
      "alpha" : 1,
      "operation" : 0,
      "weights" : {

      },
      "fused_relu" : 0,
      "debug_info" : "functional_1\/conv2d_11\/BiasAdd",
      "nd_mode" : true,
      "top" : "functional_1\/conv2d_11\/BiasAdd",
      "type" : "elementwise",
      "name" : "functional_1\/conv2d_11\/BiasAdd",
      "beta" : 0
    },
    {
      "axis_mode" : 4,
      "bottom" : "functional_1\/conv2d_11\/BiasAdd",
      "weights" : {

      },
      "mode" : 1,
      "nd_axis" : 1,
      "nd_mode" : true,
      "debug_info" : "functional_1\/instance_normalization_9\/Mean",
      "use_version" : 1,
      "top" : "functional_1\/conv2d_11\/BiasAdd1",
      "type" : "reduce",
      "name" : "functional_1\/instance_normalization_9\/Mean0"
    },
    {
      "axis_mode" : 2,
      "bottom" : "functional_1\/conv2d_11\/BiasAdd1",
      "weights" : {

      },
      "mode" : 1,
      "nd_axis" : 2,
      "nd_mode" : true,
      "debug_info" : "functional_1\/instance_normalization_9\/Mean",
      "use_version" : 1,
      "top" : "functional_1\/instance_normalization_9\/Mean",
      "type" : "reduce",
      "name" : "functional_1\/instance_normalization_9\/Mean"
    },
    {
      "axis_mode" : 4,
      "bottom" : "functional_1\/conv2d_11\/BiasAdd",
      "weights" : {

      },
      "mode" : 1,
      "nd_axis" : 1,
      "nd_mode" : true,
      "debug_info" : "functional_1\/instance_normalization_9\/reduce_std\/reduce_variance\/Mean",
      "use_version" : 1,
      "top" : "functional_1\/conv2d_11\/BiasAdd1",
      "type" : "reduce",
      "name" : "functional_1\/instance_normalization_9\/reduce_std\/reduce_variance\/Mean0"
    },
    {
      "axis_mode" : 2,
      "bottom" : "functional_1\/conv2d_11\/BiasAdd1",
      "weights" : {

      },
      "mode" : 1,
      "nd_axis" : 2,
      "nd_mode" : true,
      "debug_info" : "functional_1\/instance_normalization_9\/reduce_std\/reduce_variance\/Mean",
      "use_version" : 1,
      "top" : "functional_1\/instance_normalization_9\/reduce_std\/reduce_variance\/Mean",
      "type" : "reduce",
      "name" : "functional_1\/instance_normalization_9\/reduce_std\/reduce_variance\/Mean"
    },
    {
      "bottom" : "functional_1\/conv2d_11\/BiasAdd,functional_1\/instance_normalization_9\/Mean",
      "alpha" : 1,
      "operation" : 33,
      "weights" : {

      },
      "fused_relu" : 0,
      "debug_info" : "functional_1\/instance_normalization_9\/sub",
      "nd_mode" : true,
      "top" : "functional_1\/instance_normalization_9\/sub",
      "type" : "elementwise",
      "name" : "functional_1\/instance_normalization_9\/sub",
      "beta" : 0
    },
    {
      "bottom" : "functional_1\/conv2d_11\/BiasAdd,functional_1\/instance_normalization_9\/reduce_std\/reduce_variance\/Mean",
      "alpha" : 1,
      "operation" : 33,
      "weights" : {

      },
      "fused_relu" : 0,
      "debug_info" : "functional_1\/instance_normalization_9\/reduce_std\/reduce_variance\/sub",
      "nd_mode" : true,
      "top" : "functional_1\/instance_normalization_9\/reduce_std\/reduce_variance\/sub",
      "type" : "elementwise",
      "name" : "functional_1\/instance_normalization_9\/reduce_std\/reduce_variance\/sub",
      "beta" : 0
    },
    {
      "bottom" : "functional_1\/instance_normalization_9\/reduce_std\/reduce_variance\/sub",
      "alpha" : 2,
      "operation" : 13,
      "weights" : {

      },
      "fused_relu" : 0,
      "debug_info" : "functional_1\/instance_normalization_9\/reduce_std\/reduce_variance\/Square",
      "top" : "functional_1\/instance_normalization_9\/reduce_std\/reduce_variance\/Square",
      "type" : "elementwise",
      "name" : "functional_1\/instance_normalization_9\/reduce_std\/reduce_variance\/Square",
      "beta" : 0
    },
    {
      "axis_mode" : 4,
      "bottom" : "functional_1\/instance_normalization_9\/reduce_std\/reduce_variance\/Square",
      "weights" : {

      },
      "mode" : 1,
      "nd_axis" : 1,
      "nd_mode" : true,
      "debug_info" : "functional_1\/instance_normalization_9\/reduce_std\/reduce_variance\/Mean_1",
      "use_version" : 1,
      "top" : "functional_1\/instance_normalization_9\/reduce_std\/reduce_variance\/Square1",
      "type" : "reduce",
      "name" : "functional_1\/instance_normalization_9\/reduce_std\/reduce_variance\/Mean_10"
    },
    {
      "axis_mode" : 2,
      "bottom" : "functional_1\/instance_normalization_9\/reduce_std\/reduce_variance\/Square1",
      "weights" : {

      },
      "mode" : 1,
      "nd_axis" : 2,
      "nd_mode" : true,
      "debug_info" : "functional_1\/instance_normalization_9\/reduce_std\/reduce_variance\/Mean_1",
      "use_version" : 1,
      "top" : "functional_1\/instance_normalization_9\/reduce_std\/reduce_variance\/Mean_1",
      "type" : "reduce",
      "name" : "functional_1\/instance_normalization_9\/reduce_std\/reduce_variance\/Mean_1"
    },
    {
      "bottom" : "functional_1\/instance_normalization_9\/reduce_std\/reduce_variance\/Mean_1",
      "alpha" : 1,
      "operation" : 11,
      "weights" : {

      },
      "fused_relu" : 0,
      "debug_info" : "functional_1\/instance_normalization_9\/reduce_std\/Sqrt",
      "top" : "functional_1\/instance_normalization_9\/reduce_std\/Sqrt",
      "type" : "elementwise",
      "name" : "functional_1\/instance_normalization_9\/reduce_std\/Sqrt",
      "beta" : 0
    },
    {
      "bottom" : "functional_1\/instance_normalization_9\/reduce_std\/Sqrt",
      "alpha" : 9.9999997171806854e-10,
      "operation" : 0,
      "weights" : {

      },
      "fused_relu" : 0,
      "debug_info" : "functional_1\/instance_normalization_9\/add",
      "top" : "functional_1\/instance_normalization_9\/add",
      "type" : "elementwise",
      "name" : "functional_1\/instance_normalization_9\/add",
      "beta" : 0
    },
    {
      "bottom" : "functional_1\/instance_normalization_9\/sub,functional_1\/instance_normalization_9\/add",
      "alpha" : 1,
      "operation" : 102,
      "weights" : {

      },
      "fused_relu" : 0,
      "debug_info" : "functional_1\/instance_normalization_9\/truediv",
      "nd_mode" : true,
      "top" : "functional_1\/instance_normalization_9\/truediv",
      "type" : "elementwise",
      "name" : "functional_1\/instance_normalization_9\/truediv",
      "beta" : 0
    },
    {
      "top" : "functional_1\/instance_normalization_9\/Reshape",
      "w" : 256,
      "h" : 1,
      "name" : "functional_1\/instance_normalization_9\/Reshape",
      "nd_rank" : 4,
      "type" : "load_constant",
      "k" : 1,
      "bottom" : "",
      "debug_info" : "functional_1\/instance_normalization_9\/Reshape",
      "n" : 1,
      "weights" : {

      },
      "constant_blob" : 85
    },
    {
      "bottom" : "functional_1\/instance_normalization_9\/truediv,functional_1\/instance_normalization_9\/Reshape",
      "alpha" : 1,
      "operation" : 1,
      "weights" : {

      },
      "fused_relu" : 0,
      "debug_info" : "functional_1\/instance_normalization_9\/mul",
      "nd_mode" : true,
      "top" : "functional_1\/instance_normalization_9\/mul",
      "type" : "elementwise",
      "name" : "functional_1\/instance_normalization_9\/mul",
      "beta" : 0
    },
    {
      "top" : "functional_1\/instance_normalization_9\/Reshape_1",
      "w" : 256,
      "h" : 1,
      "name" : "functional_1\/instance_normalization_9\/Reshape_1",
      "nd_rank" : 4,
      "type" : "load_constant",
      "k" : 1,
      "bottom" : "",
      "debug_info" : "functional_1\/instance_normalization_9\/Reshape_1",
      "n" : 1,
      "weights" : {

      },
      "constant_blob" : 87
    },
    {
      "bottom" : "functional_1\/instance_normalization_9\/mul,functional_1\/instance_normalization_9\/Reshape_1",
      "alpha" : 1,
      "operation" : 0,
      "weights" : {

      },
      "fused_relu" : 0,
      "debug_info" : "functional_1\/instance_normalization_9\/add_1",
      "nd_mode" : true,
      "top" : "functional_1\/instance_normalization_9\/add_1",
      "type" : "elementwise",
      "name" : "functional_1\/instance_normalization_9\/add_1",
      "beta" : 0
    },
    {
      "bottom" : "functional_1\/instance_normalization_9\/add_1",
      "weights" : {

      },
      "mode" : 0,
      "debug_info" : "functional_1\/activation_6\/Relu",
      "top" : "functional_1\/activation_6\/Relu",
      "type" : "activation",
      "name" : "functional_1\/activation_6\/Relu"
    },
    {
      "axis_h" : 2,
      "axis_w" : 1,
      "bottom" : "functional_1\/activation_6\/Relu",
      "axis_k" : 0,
      "axis_n" : 3,
      "axis_seq" : 4,
      "weights" : {

      },
      "debug_info" : "functional_1\/reflection_padding2d_12\/MirrorPad_transpose_1",
      "top" : "functional_1\/reflection_padding2d_12\/MirrorPad_transpose_1",
      "type" : "transpose",
      "name" : "functional_1\/reflection_padding2d_12\/MirrorPad_transpose_1"
    },
    {
      "name" : "functional_1\/reflection_padding2d_12\/MirrorPad_pad",
      "weights" : {

      },
      "pad_pad_mode" : 0,
      "pad_t" : 1,
      "pad_r" : 1,
      "pad_b" : 1,
      "type" : "general_padding",
      "pad_fill_mode" : 2,
      "bottom" : "functional_1\/reflection_padding2d_12\/MirrorPad_transpose_1",
      "pad_l" : 1,
      "debug_info" : "functional_1\/reflection_padding2d_12\/MirrorPad_pad",
      "pad_value" : 0,
      "top" : "functional_1\/reflection_padding2d_12\/MirrorPad_pad"
    },
    {
      "pad_r" : 0,
      "fused_relu" : 0,
      "fused_tanh" : 0,
      "debug_info" : "functional_1\/conv2d_12\/Conv2Dx",
      "pad_fill_mode" : 0,
      "pad_b" : 0,
      "pad_l" : 0,
      "top" : "functional_1\/conv2d_12\/Conv2Dx",
      "blob_weights" : 89,
      "K" : 256,
      "name" : "functional_1\/conv2d_12\/Conv2Dx",
      "has_batch_norm" : 0,
      "type" : "convolution",
      "n_groups" : 1,
      "pad_t" : 0,
      "has_biases" : 0,
      "C" : 256,
      "bottom" : "functional_1\/reflection_padding2d_12\/MirrorPad_pad",
      "weights" : {

      },
      "Nx" : 3,
      "pad_mode" : 0,
      "pad_value" : 0,
      "Ny" : 3,
      "n_parallel" : 1
    },
    {
      "axis_h" : 0,
      "axis_w" : 2,
      "bottom" : "functional_1\/conv2d_12\/Conv2Dx",
      "axis_k" : 1,
      "axis_n" : 3,
      "axis_seq" : 4,
      "weights" : {

      },
      "debug_info" : "functional_1\/conv2d_12\/Conv2D",
      "top" : "functional_1\/conv2d_12\/Conv2D",
      "type" : "transpose",
      "name" : "functional_1\/conv2d_12\/Conv2D"
    },
    {
      "top" : "functional_1\/conv2d_12\/BiasAdd\/ReadVariableOp",
      "w" : 256,
      "h" : 1,
      "name" : "functional_1\/conv2d_12\/BiasAdd\/ReadVariableOp",
      "nd_rank" : 1,
      "type" : "load_constant",
      "k" : 1,
      "bottom" : "",
      "debug_info" : "functional_1\/conv2d_12\/BiasAdd\/ReadVariableOp",
      "n" : 1,
      "weights" : {

      },
      "constant_blob" : 91
    },
    {
      "bottom" : "functional_1\/conv2d_12\/Conv2D,functional_1\/conv2d_12\/BiasAdd\/ReadVariableOp",
      "alpha" : 1,
      "operation" : 0,
      "weights" : {

      },
      "fused_relu" : 0,
      "debug_info" : "functional_1\/conv2d_12\/BiasAdd",
      "nd_mode" : true,
      "top" : "functional_1\/conv2d_12\/BiasAdd",
      "type" : "elementwise",
      "name" : "functional_1\/conv2d_12\/BiasAdd",
      "beta" : 0
    },
    {
      "axis_mode" : 4,
      "bottom" : "functional_1\/conv2d_12\/BiasAdd",
      "weights" : {

      },
      "mode" : 1,
      "nd_axis" : 1,
      "nd_mode" : true,
      "debug_info" : "functional_1\/instance_normalization_10\/Mean",
      "use_version" : 1,
      "top" : "functional_1\/conv2d_12\/BiasAdd1",
      "type" : "reduce",
      "name" : "functional_1\/instance_normalization_10\/Mean0"
    },
    {
      "axis_mode" : 2,
      "bottom" : "functional_1\/conv2d_12\/BiasAdd1",
      "weights" : {

      },
      "mode" : 1,
      "nd_axis" : 2,
      "nd_mode" : true,
      "debug_info" : "functional_1\/instance_normalization_10\/Mean",
      "use_version" : 1,
      "top" : "functional_1\/instance_normalization_10\/Mean",
      "type" : "reduce",
      "name" : "functional_1\/instance_normalization_10\/Mean"
    },
    {
      "axis_mode" : 4,
      "bottom" : "functional_1\/conv2d_12\/BiasAdd",
      "weights" : {

      },
      "mode" : 1,
      "nd_axis" : 1,
      "nd_mode" : true,
      "debug_info" : "functional_1\/instance_normalization_10\/reduce_std\/reduce_variance\/Mean",
      "use_version" : 1,
      "top" : "functional_1\/conv2d_12\/BiasAdd1",
      "type" : "reduce",
      "name" : "functional_1\/instance_normalization_10\/reduce_std\/reduce_variance\/Mean0"
    },
    {
      "axis_mode" : 2,
      "bottom" : "functional_1\/conv2d_12\/BiasAdd1",
      "weights" : {

      },
      "mode" : 1,
      "nd_axis" : 2,
      "nd_mode" : true,
      "debug_info" : "functional_1\/instance_normalization_10\/reduce_std\/reduce_variance\/Mean",
      "use_version" : 1,
      "top" : "functional_1\/instance_normalization_10\/reduce_std\/reduce_variance\/Mean",
      "type" : "reduce",
      "name" : "functional_1\/instance_normalization_10\/reduce_std\/reduce_variance\/Mean"
    },
    {
      "bottom" : "functional_1\/conv2d_12\/BiasAdd,functional_1\/instance_normalization_10\/Mean",
      "alpha" : 1,
      "operation" : 33,
      "weights" : {

      },
      "fused_relu" : 0,
      "debug_info" : "functional_1\/instance_normalization_10\/sub",
      "nd_mode" : true,
      "top" : "functional_1\/instance_normalization_10\/sub",
      "type" : "elementwise",
      "name" : "functional_1\/instance_normalization_10\/sub",
      "beta" : 0
    },
    {
      "bottom" : "functional_1\/conv2d_12\/BiasAdd,functional_1\/instance_normalization_10\/reduce_std\/reduce_variance\/Mean",
      "alpha" : 1,
      "operation" : 33,
      "weights" : {

      },
      "fused_relu" : 0,
      "debug_info" : "functional_1\/instance_normalization_10\/reduce_std\/reduce_variance\/sub",
      "nd_mode" : true,
      "top" : "functional_1\/instance_normalization_10\/reduce_std\/reduce_variance\/sub",
      "type" : "elementwise",
      "name" : "functional_1\/instance_normalization_10\/reduce_std\/reduce_variance\/sub",
      "beta" : 0
    },
    {
      "bottom" : "functional_1\/instance_normalization_10\/reduce_std\/reduce_variance\/sub",
      "alpha" : 2,
      "operation" : 13,
      "weights" : {

      },
      "fused_relu" : 0,
      "debug_info" : "functional_1\/instance_normalization_10\/reduce_std\/reduce_variance\/Square",
      "top" : "functional_1\/instance_normalization_10\/reduce_std\/reduce_variance\/Square",
      "type" : "elementwise",
      "name" : "functional_1\/instance_normalization_10\/reduce_std\/reduce_variance\/Square",
      "beta" : 0
    },
    {
      "axis_mode" : 4,
      "bottom" : "functional_1\/instance_normalization_10\/reduce_std\/reduce_variance\/Square",
      "weights" : {

      },
      "mode" : 1,
      "nd_axis" : 1,
      "nd_mode" : true,
      "debug_info" : "functional_1\/instance_normalization_10\/reduce_std\/reduce_variance\/Mean_1",
      "use_version" : 1,
      "top" : "functional_1\/instance_normalization_10\/reduce_std\/reduce_variance\/Square1",
      "type" : "reduce",
      "name" : "functional_1\/instance_normalization_10\/reduce_std\/reduce_variance\/Mean_10"
    },
    {
      "axis_mode" : 2,
      "bottom" : "functional_1\/instance_normalization_10\/reduce_std\/reduce_variance\/Square1",
      "weights" : {

      },
      "mode" : 1,
      "nd_axis" : 2,
      "nd_mode" : true,
      "debug_info" : "functional_1\/instance_normalization_10\/reduce_std\/reduce_variance\/Mean_1",
      "use_version" : 1,
      "top" : "functional_1\/instance_normalization_10\/reduce_std\/reduce_variance\/Mean_1",
      "type" : "reduce",
      "name" : "functional_1\/instance_normalization_10\/reduce_std\/reduce_variance\/Mean_1"
    },
    {
      "bottom" : "functional_1\/instance_normalization_10\/reduce_std\/reduce_variance\/Mean_1",
      "alpha" : 1,
      "operation" : 11,
      "weights" : {

      },
      "fused_relu" : 0,
      "debug_info" : "functional_1\/instance_normalization_10\/reduce_std\/Sqrt",
      "top" : "functional_1\/instance_normalization_10\/reduce_std\/Sqrt",
      "type" : "elementwise",
      "name" : "functional_1\/instance_normalization_10\/reduce_std\/Sqrt",
      "beta" : 0
    },
    {
      "bottom" : "functional_1\/instance_normalization_10\/reduce_std\/Sqrt",
      "alpha" : 9.9999997171806854e-10,
      "operation" : 0,
      "weights" : {

      },
      "fused_relu" : 0,
      "debug_info" : "functional_1\/instance_normalization_10\/add",
      "top" : "functional_1\/instance_normalization_10\/add",
      "type" : "elementwise",
      "name" : "functional_1\/instance_normalization_10\/add",
      "beta" : 0
    },
    {
      "bottom" : "functional_1\/instance_normalization_10\/sub,functional_1\/instance_normalization_10\/add",
      "alpha" : 1,
      "operation" : 102,
      "weights" : {

      },
      "fused_relu" : 0,
      "debug_info" : "functional_1\/instance_normalization_10\/truediv",
      "nd_mode" : true,
      "top" : "functional_1\/instance_normalization_10\/truediv",
      "type" : "elementwise",
      "name" : "functional_1\/instance_normalization_10\/truediv",
      "beta" : 0
    },
    {
      "top" : "functional_1\/instance_normalization_10\/Reshape",
      "w" : 256,
      "h" : 1,
      "name" : "functional_1\/instance_normalization_10\/Reshape",
      "nd_rank" : 4,
      "type" : "load_constant",
      "k" : 1,
      "bottom" : "",
      "debug_info" : "functional_1\/instance_normalization_10\/Reshape",
      "n" : 1,
      "weights" : {

      },
      "constant_blob" : 93
    },
    {
      "bottom" : "functional_1\/instance_normalization_10\/truediv,functional_1\/instance_normalization_10\/Reshape",
      "alpha" : 1,
      "operation" : 1,
      "weights" : {

      },
      "fused_relu" : 0,
      "debug_info" : "functional_1\/instance_normalization_10\/mul",
      "nd_mode" : true,
      "top" : "functional_1\/instance_normalization_10\/mul",
      "type" : "elementwise",
      "name" : "functional_1\/instance_normalization_10\/mul",
      "beta" : 0
    },
    {
      "top" : "functional_1\/instance_normalization_10\/Reshape_1",
      "w" : 256,
      "h" : 1,
      "name" : "functional_1\/instance_normalization_10\/Reshape_1",
      "nd_rank" : 4,
      "type" : "load_constant",
      "k" : 1,
      "bottom" : "",
      "debug_info" : "functional_1\/instance_normalization_10\/Reshape_1",
      "n" : 1,
      "weights" : {

      },
      "constant_blob" : 95
    },
    {
      "bottom" : "functional_1\/instance_normalization_10\/mul,functional_1\/instance_normalization_10\/Reshape_1",
      "alpha" : 1,
      "operation" : 0,
      "weights" : {

      },
      "fused_relu" : 0,
      "debug_info" : "functional_1\/instance_normalization_10\/add_1",
      "nd_mode" : true,
      "top" : "functional_1\/instance_normalization_10\/add_1",
      "type" : "elementwise",
      "name" : "functional_1\/instance_normalization_10\/add_1",
      "beta" : 0
    },
    {
      "bottom" : "functional_1\/instance_normalization_10\/add_1,functional_1\/add_2\/add",
      "alpha" : 1,
      "operation" : 0,
      "weights" : {

      },
      "fused_relu" : 0,
      "debug_info" : "functional_1\/add_3\/add",
      "top" : "functional_1\/add_3\/add",
      "type" : "elementwise",
      "name" : "functional_1\/add_3\/add",
      "beta" : 0
    },
    {
      "axis_h" : 2,
      "axis_w" : 1,
      "bottom" : "functional_1\/add_3\/add",
      "axis_k" : 0,
      "axis_n" : 3,
      "axis_seq" : 4,
      "weights" : {

      },
      "debug_info" : "functional_1\/reflection_padding2d_13\/MirrorPad_transpose_1",
      "top" : "functional_1\/reflection_padding2d_13\/MirrorPad_transpose_1",
      "type" : "transpose",
      "name" : "functional_1\/reflection_padding2d_13\/MirrorPad_transpose_1"
    },
    {
      "name" : "functional_1\/reflection_padding2d_13\/MirrorPad_pad",
      "weights" : {

      },
      "pad_pad_mode" : 0,
      "pad_t" : 1,
      "pad_r" : 1,
      "pad_b" : 1,
      "type" : "general_padding",
      "pad_fill_mode" : 2,
      "bottom" : "functional_1\/reflection_padding2d_13\/MirrorPad_transpose_1",
      "pad_l" : 1,
      "debug_info" : "functional_1\/reflection_padding2d_13\/MirrorPad_pad",
      "pad_value" : 0,
      "top" : "functional_1\/reflection_padding2d_13\/MirrorPad_pad"
    },
    {
      "pad_r" : 0,
      "fused_relu" : 0,
      "fused_tanh" : 0,
      "debug_info" : "functional_1\/conv2d_13\/Conv2Dx",
      "pad_fill_mode" : 0,
      "pad_b" : 0,
      "pad_l" : 0,
      "top" : "functional_1\/conv2d_13\/Conv2Dx",
      "blob_weights" : 97,
      "K" : 256,
      "name" : "functional_1\/conv2d_13\/Conv2Dx",
      "has_batch_norm" : 0,
      "type" : "convolution",
      "n_groups" : 1,
      "pad_t" : 0,
      "has_biases" : 0,
      "C" : 256,
      "bottom" : "functional_1\/reflection_padding2d_13\/MirrorPad_pad",
      "weights" : {

      },
      "Nx" : 3,
      "pad_mode" : 0,
      "pad_value" : 0,
      "Ny" : 3,
      "n_parallel" : 1
    },
    {
      "axis_h" : 0,
      "axis_w" : 2,
      "bottom" : "functional_1\/conv2d_13\/Conv2Dx",
      "axis_k" : 1,
      "axis_n" : 3,
      "axis_seq" : 4,
      "weights" : {

      },
      "debug_info" : "functional_1\/conv2d_13\/Conv2D",
      "top" : "functional_1\/conv2d_13\/Conv2D",
      "type" : "transpose",
      "name" : "functional_1\/conv2d_13\/Conv2D"
    },
    {
      "top" : "functional_1\/conv2d_13\/BiasAdd\/ReadVariableOp",
      "w" : 256,
      "h" : 1,
      "name" : "functional_1\/conv2d_13\/BiasAdd\/ReadVariableOp",
      "nd_rank" : 1,
      "type" : "load_constant",
      "k" : 1,
      "bottom" : "",
      "debug_info" : "functional_1\/conv2d_13\/BiasAdd\/ReadVariableOp",
      "n" : 1,
      "weights" : {

      },
      "constant_blob" : 99
    },
    {
      "bottom" : "functional_1\/conv2d_13\/Conv2D,functional_1\/conv2d_13\/BiasAdd\/ReadVariableOp",
      "alpha" : 1,
      "operation" : 0,
      "weights" : {

      },
      "fused_relu" : 0,
      "debug_info" : "functional_1\/conv2d_13\/BiasAdd",
      "nd_mode" : true,
      "top" : "functional_1\/conv2d_13\/BiasAdd",
      "type" : "elementwise",
      "name" : "functional_1\/conv2d_13\/BiasAdd",
      "beta" : 0
    },
    {
      "axis_mode" : 4,
      "bottom" : "functional_1\/conv2d_13\/BiasAdd",
      "weights" : {

      },
      "mode" : 1,
      "nd_axis" : 1,
      "nd_mode" : true,
      "debug_info" : "functional_1\/instance_normalization_11\/Mean",
      "use_version" : 1,
      "top" : "functional_1\/conv2d_13\/BiasAdd1",
      "type" : "reduce",
      "name" : "functional_1\/instance_normalization_11\/Mean0"
    },
    {
      "axis_mode" : 2,
      "bottom" : "functional_1\/conv2d_13\/BiasAdd1",
      "weights" : {

      },
      "mode" : 1,
      "nd_axis" : 2,
      "nd_mode" : true,
      "debug_info" : "functional_1\/instance_normalization_11\/Mean",
      "use_version" : 1,
      "top" : "functional_1\/instance_normalization_11\/Mean",
      "type" : "reduce",
      "name" : "functional_1\/instance_normalization_11\/Mean"
    },
    {
      "axis_mode" : 4,
      "bottom" : "functional_1\/conv2d_13\/BiasAdd",
      "weights" : {

      },
      "mode" : 1,
      "nd_axis" : 1,
      "nd_mode" : true,
      "debug_info" : "functional_1\/instance_normalization_11\/reduce_std\/reduce_variance\/Mean",
      "use_version" : 1,
      "top" : "functional_1\/conv2d_13\/BiasAdd1",
      "type" : "reduce",
      "name" : "functional_1\/instance_normalization_11\/reduce_std\/reduce_variance\/Mean0"
    },
    {
      "axis_mode" : 2,
      "bottom" : "functional_1\/conv2d_13\/BiasAdd1",
      "weights" : {

      },
      "mode" : 1,
      "nd_axis" : 2,
      "nd_mode" : true,
      "debug_info" : "functional_1\/instance_normalization_11\/reduce_std\/reduce_variance\/Mean",
      "use_version" : 1,
      "top" : "functional_1\/instance_normalization_11\/reduce_std\/reduce_variance\/Mean",
      "type" : "reduce",
      "name" : "functional_1\/instance_normalization_11\/reduce_std\/reduce_variance\/Mean"
    },
    {
      "bottom" : "functional_1\/conv2d_13\/BiasAdd,functional_1\/instance_normalization_11\/Mean",
      "alpha" : 1,
      "operation" : 33,
      "weights" : {

      },
      "fused_relu" : 0,
      "debug_info" : "functional_1\/instance_normalization_11\/sub",
      "nd_mode" : true,
      "top" : "functional_1\/instance_normalization_11\/sub",
      "type" : "elementwise",
      "name" : "functional_1\/instance_normalization_11\/sub",
      "beta" : 0
    },
    {
      "bottom" : "functional_1\/conv2d_13\/BiasAdd,functional_1\/instance_normalization_11\/reduce_std\/reduce_variance\/Mean",
      "alpha" : 1,
      "operation" : 33,
      "weights" : {

      },
      "fused_relu" : 0,
      "debug_info" : "functional_1\/instance_normalization_11\/reduce_std\/reduce_variance\/sub",
      "nd_mode" : true,
      "top" : "functional_1\/instance_normalization_11\/reduce_std\/reduce_variance\/sub",
      "type" : "elementwise",
      "name" : "functional_1\/instance_normalization_11\/reduce_std\/reduce_variance\/sub",
      "beta" : 0
    },
    {
      "bottom" : "functional_1\/instance_normalization_11\/reduce_std\/reduce_variance\/sub",
      "alpha" : 2,
      "operation" : 13,
      "weights" : {

      },
      "fused_relu" : 0,
      "debug_info" : "functional_1\/instance_normalization_11\/reduce_std\/reduce_variance\/Square",
      "top" : "functional_1\/instance_normalization_11\/reduce_std\/reduce_variance\/Square",
      "type" : "elementwise",
      "name" : "functional_1\/instance_normalization_11\/reduce_std\/reduce_variance\/Square",
      "beta" : 0
    },
    {
      "axis_mode" : 4,
      "bottom" : "functional_1\/instance_normalization_11\/reduce_std\/reduce_variance\/Square",
      "weights" : {

      },
      "mode" : 1,
      "nd_axis" : 1,
      "nd_mode" : true,
      "debug_info" : "functional_1\/instance_normalization_11\/reduce_std\/reduce_variance\/Mean_1",
      "use_version" : 1,
      "top" : "functional_1\/instance_normalization_11\/reduce_std\/reduce_variance\/Square1",
      "type" : "reduce",
      "name" : "functional_1\/instance_normalization_11\/reduce_std\/reduce_variance\/Mean_10"
    },
    {
      "axis_mode" : 2,
      "bottom" : "functional_1\/instance_normalization_11\/reduce_std\/reduce_variance\/Square1",
      "weights" : {

      },
      "mode" : 1,
      "nd_axis" : 2,
      "nd_mode" : true,
      "debug_info" : "functional_1\/instance_normalization_11\/reduce_std\/reduce_variance\/Mean_1",
      "use_version" : 1,
      "top" : "functional_1\/instance_normalization_11\/reduce_std\/reduce_variance\/Mean_1",
      "type" : "reduce",
      "name" : "functional_1\/instance_normalization_11\/reduce_std\/reduce_variance\/Mean_1"
    },
    {
      "bottom" : "functional_1\/instance_normalization_11\/reduce_std\/reduce_variance\/Mean_1",
      "alpha" : 1,
      "operation" : 11,
      "weights" : {

      },
      "fused_relu" : 0,
      "debug_info" : "functional_1\/instance_normalization_11\/reduce_std\/Sqrt",
      "top" : "functional_1\/instance_normalization_11\/reduce_std\/Sqrt",
      "type" : "elementwise",
      "name" : "functional_1\/instance_normalization_11\/reduce_std\/Sqrt",
      "beta" : 0
    },
    {
      "bottom" : "functional_1\/instance_normalization_11\/reduce_std\/Sqrt",
      "alpha" : 9.9999997171806854e-10,
      "operation" : 0,
      "weights" : {

      },
      "fused_relu" : 0,
      "debug_info" : "functional_1\/instance_normalization_11\/add",
      "top" : "functional_1\/instance_normalization_11\/add",
      "type" : "elementwise",
      "name" : "functional_1\/instance_normalization_11\/add",
      "beta" : 0
    },
    {
      "bottom" : "functional_1\/instance_normalization_11\/sub,functional_1\/instance_normalization_11\/add",
      "alpha" : 1,
      "operation" : 102,
      "weights" : {

      },
      "fused_relu" : 0,
      "debug_info" : "functional_1\/instance_normalization_11\/truediv",
      "nd_mode" : true,
      "top" : "functional_1\/instance_normalization_11\/truediv",
      "type" : "elementwise",
      "name" : "functional_1\/instance_normalization_11\/truediv",
      "beta" : 0
    },
    {
      "top" : "functional_1\/instance_normalization_11\/Reshape",
      "w" : 256,
      "h" : 1,
      "name" : "functional_1\/instance_normalization_11\/Reshape",
      "nd_rank" : 4,
      "type" : "load_constant",
      "k" : 1,
      "bottom" : "",
      "debug_info" : "functional_1\/instance_normalization_11\/Reshape",
      "n" : 1,
      "weights" : {

      },
      "constant_blob" : 101
    },
    {
      "bottom" : "functional_1\/instance_normalization_11\/truediv,functional_1\/instance_normalization_11\/Reshape",
      "alpha" : 1,
      "operation" : 1,
      "weights" : {

      },
      "fused_relu" : 0,
      "debug_info" : "functional_1\/instance_normalization_11\/mul",
      "nd_mode" : true,
      "top" : "functional_1\/instance_normalization_11\/mul",
      "type" : "elementwise",
      "name" : "functional_1\/instance_normalization_11\/mul",
      "beta" : 0
    },
    {
      "top" : "functional_1\/instance_normalization_11\/Reshape_1",
      "w" : 256,
      "h" : 1,
      "name" : "functional_1\/instance_normalization_11\/Reshape_1",
      "nd_rank" : 4,
      "type" : "load_constant",
      "k" : 1,
      "bottom" : "",
      "debug_info" : "functional_1\/instance_normalization_11\/Reshape_1",
      "n" : 1,
      "weights" : {

      },
      "constant_blob" : 103
    },
    {
      "bottom" : "functional_1\/instance_normalization_11\/mul,functional_1\/instance_normalization_11\/Reshape_1",
      "alpha" : 1,
      "operation" : 0,
      "weights" : {

      },
      "fused_relu" : 0,
      "debug_info" : "functional_1\/instance_normalization_11\/add_1",
      "nd_mode" : true,
      "top" : "functional_1\/instance_normalization_11\/add_1",
      "type" : "elementwise",
      "name" : "functional_1\/instance_normalization_11\/add_1",
      "beta" : 0
    },
    {
      "bottom" : "functional_1\/instance_normalization_11\/add_1",
      "weights" : {

      },
      "mode" : 0,
      "debug_info" : "functional_1\/activation_7\/Relu",
      "top" : "functional_1\/activation_7\/Relu",
      "type" : "activation",
      "name" : "functional_1\/activation_7\/Relu"
    },
    {
      "axis_h" : 2,
      "axis_w" : 1,
      "bottom" : "functional_1\/activation_7\/Relu",
      "axis_k" : 0,
      "axis_n" : 3,
      "axis_seq" : 4,
      "weights" : {

      },
      "debug_info" : "functional_1\/reflection_padding2d_14\/MirrorPad_transpose_1",
      "top" : "functional_1\/reflection_padding2d_14\/MirrorPad_transpose_1",
      "type" : "transpose",
      "name" : "functional_1\/reflection_padding2d_14\/MirrorPad_transpose_1"
    },
    {
      "name" : "functional_1\/reflection_padding2d_14\/MirrorPad_pad",
      "weights" : {

      },
      "pad_pad_mode" : 0,
      "pad_t" : 1,
      "pad_r" : 1,
      "pad_b" : 1,
      "type" : "general_padding",
      "pad_fill_mode" : 2,
      "bottom" : "functional_1\/reflection_padding2d_14\/MirrorPad_transpose_1",
      "pad_l" : 1,
      "debug_info" : "functional_1\/reflection_padding2d_14\/MirrorPad_pad",
      "pad_value" : 0,
      "top" : "functional_1\/reflection_padding2d_14\/MirrorPad_pad"
    },
    {
      "pad_r" : 0,
      "fused_relu" : 0,
      "fused_tanh" : 0,
      "debug_info" : "functional_1\/conv2d_14\/Conv2Dx",
      "pad_fill_mode" : 0,
      "pad_b" : 0,
      "pad_l" : 0,
      "top" : "functional_1\/conv2d_14\/Conv2Dx",
      "blob_weights" : 105,
      "K" : 256,
      "name" : "functional_1\/conv2d_14\/Conv2Dx",
      "has_batch_norm" : 0,
      "type" : "convolution",
      "n_groups" : 1,
      "pad_t" : 0,
      "has_biases" : 0,
      "C" : 256,
      "bottom" : "functional_1\/reflection_padding2d_14\/MirrorPad_pad",
      "weights" : {

      },
      "Nx" : 3,
      "pad_mode" : 0,
      "pad_value" : 0,
      "Ny" : 3,
      "n_parallel" : 1
    },
    {
      "axis_h" : 0,
      "axis_w" : 2,
      "bottom" : "functional_1\/conv2d_14\/Conv2Dx",
      "axis_k" : 1,
      "axis_n" : 3,
      "axis_seq" : 4,
      "weights" : {

      },
      "debug_info" : "functional_1\/conv2d_14\/Conv2D",
      "top" : "functional_1\/conv2d_14\/Conv2D",
      "type" : "transpose",
      "name" : "functional_1\/conv2d_14\/Conv2D"
    },
    {
      "top" : "functional_1\/conv2d_14\/BiasAdd\/ReadVariableOp",
      "w" : 256,
      "h" : 1,
      "name" : "functional_1\/conv2d_14\/BiasAdd\/ReadVariableOp",
      "nd_rank" : 1,
      "type" : "load_constant",
      "k" : 1,
      "bottom" : "",
      "debug_info" : "functional_1\/conv2d_14\/BiasAdd\/ReadVariableOp",
      "n" : 1,
      "weights" : {

      },
      "constant_blob" : 107
    },
    {
      "bottom" : "functional_1\/conv2d_14\/Conv2D,functional_1\/conv2d_14\/BiasAdd\/ReadVariableOp",
      "alpha" : 1,
      "operation" : 0,
      "weights" : {

      },
      "fused_relu" : 0,
      "debug_info" : "functional_1\/conv2d_14\/BiasAdd",
      "nd_mode" : true,
      "top" : "functional_1\/conv2d_14\/BiasAdd",
      "type" : "elementwise",
      "name" : "functional_1\/conv2d_14\/BiasAdd",
      "beta" : 0
    },
    {
      "axis_mode" : 4,
      "bottom" : "functional_1\/conv2d_14\/BiasAdd",
      "weights" : {

      },
      "mode" : 1,
      "nd_axis" : 1,
      "nd_mode" : true,
      "debug_info" : "functional_1\/instance_normalization_12\/Mean",
      "use_version" : 1,
      "top" : "functional_1\/conv2d_14\/BiasAdd1",
      "type" : "reduce",
      "name" : "functional_1\/instance_normalization_12\/Mean0"
    },
    {
      "axis_mode" : 2,
      "bottom" : "functional_1\/conv2d_14\/BiasAdd1",
      "weights" : {

      },
      "mode" : 1,
      "nd_axis" : 2,
      "nd_mode" : true,
      "debug_info" : "functional_1\/instance_normalization_12\/Mean",
      "use_version" : 1,
      "top" : "functional_1\/instance_normalization_12\/Mean",
      "type" : "reduce",
      "name" : "functional_1\/instance_normalization_12\/Mean"
    },
    {
      "axis_mode" : 4,
      "bottom" : "functional_1\/conv2d_14\/BiasAdd",
      "weights" : {

      },
      "mode" : 1,
      "nd_axis" : 1,
      "nd_mode" : true,
      "debug_info" : "functional_1\/instance_normalization_12\/reduce_std\/reduce_variance\/Mean",
      "use_version" : 1,
      "top" : "functional_1\/conv2d_14\/BiasAdd1",
      "type" : "reduce",
      "name" : "functional_1\/instance_normalization_12\/reduce_std\/reduce_variance\/Mean0"
    },
    {
      "axis_mode" : 2,
      "bottom" : "functional_1\/conv2d_14\/BiasAdd1",
      "weights" : {

      },
      "mode" : 1,
      "nd_axis" : 2,
      "nd_mode" : true,
      "debug_info" : "functional_1\/instance_normalization_12\/reduce_std\/reduce_variance\/Mean",
      "use_version" : 1,
      "top" : "functional_1\/instance_normalization_12\/reduce_std\/reduce_variance\/Mean",
      "type" : "reduce",
      "name" : "functional_1\/instance_normalization_12\/reduce_std\/reduce_variance\/Mean"
    },
    {
      "bottom" : "functional_1\/conv2d_14\/BiasAdd,functional_1\/instance_normalization_12\/Mean",
      "alpha" : 1,
      "operation" : 33,
      "weights" : {

      },
      "fused_relu" : 0,
      "debug_info" : "functional_1\/instance_normalization_12\/sub",
      "nd_mode" : true,
      "top" : "functional_1\/instance_normalization_12\/sub",
      "type" : "elementwise",
      "name" : "functional_1\/instance_normalization_12\/sub",
      "beta" : 0
    },
    {
      "bottom" : "functional_1\/conv2d_14\/BiasAdd,functional_1\/instance_normalization_12\/reduce_std\/reduce_variance\/Mean",
      "alpha" : 1,
      "operation" : 33,
      "weights" : {

      },
      "fused_relu" : 0,
      "debug_info" : "functional_1\/instance_normalization_12\/reduce_std\/reduce_variance\/sub",
      "nd_mode" : true,
      "top" : "functional_1\/instance_normalization_12\/reduce_std\/reduce_variance\/sub",
      "type" : "elementwise",
      "name" : "functional_1\/instance_normalization_12\/reduce_std\/reduce_variance\/sub",
      "beta" : 0
    },
    {
      "bottom" : "functional_1\/instance_normalization_12\/reduce_std\/reduce_variance\/sub",
      "alpha" : 2,
      "operation" : 13,
      "weights" : {

      },
      "fused_relu" : 0,
      "debug_info" : "functional_1\/instance_normalization_12\/reduce_std\/reduce_variance\/Square",
      "top" : "functional_1\/instance_normalization_12\/reduce_std\/reduce_variance\/Square",
      "type" : "elementwise",
      "name" : "functional_1\/instance_normalization_12\/reduce_std\/reduce_variance\/Square",
      "beta" : 0
    },
    {
      "axis_mode" : 4,
      "bottom" : "functional_1\/instance_normalization_12\/reduce_std\/reduce_variance\/Square",
      "weights" : {

      },
      "mode" : 1,
      "nd_axis" : 1,
      "nd_mode" : true,
      "debug_info" : "functional_1\/instance_normalization_12\/reduce_std\/reduce_variance\/Mean_1",
      "use_version" : 1,
      "top" : "functional_1\/instance_normalization_12\/reduce_std\/reduce_variance\/Square1",
      "type" : "reduce",
      "name" : "functional_1\/instance_normalization_12\/reduce_std\/reduce_variance\/Mean_10"
    },
    {
      "axis_mode" : 2,
      "bottom" : "functional_1\/instance_normalization_12\/reduce_std\/reduce_variance\/Square1",
      "weights" : {

      },
      "mode" : 1,
      "nd_axis" : 2,
      "nd_mode" : true,
      "debug_info" : "functional_1\/instance_normalization_12\/reduce_std\/reduce_variance\/Mean_1",
      "use_version" : 1,
      "top" : "functional_1\/instance_normalization_12\/reduce_std\/reduce_variance\/Mean_1",
      "type" : "reduce",
      "name" : "functional_1\/instance_normalization_12\/reduce_std\/reduce_variance\/Mean_1"
    },
    {
      "bottom" : "functional_1\/instance_normalization_12\/reduce_std\/reduce_variance\/Mean_1",
      "alpha" : 1,
      "operation" : 11,
      "weights" : {

      },
      "fused_relu" : 0,
      "debug_info" : "functional_1\/instance_normalization_12\/reduce_std\/Sqrt",
      "top" : "functional_1\/instance_normalization_12\/reduce_std\/Sqrt",
      "type" : "elementwise",
      "name" : "functional_1\/instance_normalization_12\/reduce_std\/Sqrt",
      "beta" : 0
    },
    {
      "bottom" : "functional_1\/instance_normalization_12\/reduce_std\/Sqrt",
      "alpha" : 9.9999997171806854e-10,
      "operation" : 0,
      "weights" : {

      },
      "fused_relu" : 0,
      "debug_info" : "functional_1\/instance_normalization_12\/add",
      "top" : "functional_1\/instance_normalization_12\/add",
      "type" : "elementwise",
      "name" : "functional_1\/instance_normalization_12\/add",
      "beta" : 0
    },
    {
      "bottom" : "functional_1\/instance_normalization_12\/sub,functional_1\/instance_normalization_12\/add",
      "alpha" : 1,
      "operation" : 102,
      "weights" : {

      },
      "fused_relu" : 0,
      "debug_info" : "functional_1\/instance_normalization_12\/truediv",
      "nd_mode" : true,
      "top" : "functional_1\/instance_normalization_12\/truediv",
      "type" : "elementwise",
      "name" : "functional_1\/instance_normalization_12\/truediv",
      "beta" : 0
    },
    {
      "top" : "functional_1\/instance_normalization_12\/Reshape",
      "w" : 256,
      "h" : 1,
      "name" : "functional_1\/instance_normalization_12\/Reshape",
      "nd_rank" : 4,
      "type" : "load_constant",
      "k" : 1,
      "bottom" : "",
      "debug_info" : "functional_1\/instance_normalization_12\/Reshape",
      "n" : 1,
      "weights" : {

      },
      "constant_blob" : 109
    },
    {
      "bottom" : "functional_1\/instance_normalization_12\/truediv,functional_1\/instance_normalization_12\/Reshape",
      "alpha" : 1,
      "operation" : 1,
      "weights" : {

      },
      "fused_relu" : 0,
      "debug_info" : "functional_1\/instance_normalization_12\/mul",
      "nd_mode" : true,
      "top" : "functional_1\/instance_normalization_12\/mul",
      "type" : "elementwise",
      "name" : "functional_1\/instance_normalization_12\/mul",
      "beta" : 0
    },
    {
      "top" : "functional_1\/instance_normalization_12\/Reshape_1",
      "w" : 256,
      "h" : 1,
      "name" : "functional_1\/instance_normalization_12\/Reshape_1",
      "nd_rank" : 4,
      "type" : "load_constant",
      "k" : 1,
      "bottom" : "",
      "debug_info" : "functional_1\/instance_normalization_12\/Reshape_1",
      "n" : 1,
      "weights" : {

      },
      "constant_blob" : 111
    },
    {
      "bottom" : "functional_1\/instance_normalization_12\/mul,functional_1\/instance_normalization_12\/Reshape_1",
      "alpha" : 1,
      "operation" : 0,
      "weights" : {

      },
      "fused_relu" : 0,
      "debug_info" : "functional_1\/instance_normalization_12\/add_1",
      "nd_mode" : true,
      "top" : "functional_1\/instance_normalization_12\/add_1",
      "type" : "elementwise",
      "name" : "functional_1\/instance_normalization_12\/add_1",
      "beta" : 0
    },
    {
      "bottom" : "functional_1\/instance_normalization_12\/add_1,functional_1\/add_3\/add",
      "alpha" : 1,
      "operation" : 0,
      "weights" : {

      },
      "fused_relu" : 0,
      "debug_info" : "functional_1\/add_4\/add",
      "top" : "functional_1\/add_4\/add",
      "type" : "elementwise",
      "name" : "functional_1\/add_4\/add",
      "beta" : 0
    },
    {
      "axis_h" : 2,
      "axis_w" : 1,
      "bottom" : "functional_1\/add_4\/add",
      "axis_k" : 0,
      "axis_n" : 3,
      "axis_seq" : 4,
      "weights" : {

      },
      "debug_info" : "functional_1\/reflection_padding2d_15\/MirrorPad_transpose_1",
      "top" : "functional_1\/reflection_padding2d_15\/MirrorPad_transpose_1",
      "type" : "transpose",
      "name" : "functional_1\/reflection_padding2d_15\/MirrorPad_transpose_1"
    },
    {
      "name" : "functional_1\/reflection_padding2d_15\/MirrorPad_pad",
      "weights" : {

      },
      "pad_pad_mode" : 0,
      "pad_t" : 1,
      "pad_r" : 1,
      "pad_b" : 1,
      "type" : "general_padding",
      "pad_fill_mode" : 2,
      "bottom" : "functional_1\/reflection_padding2d_15\/MirrorPad_transpose_1",
      "pad_l" : 1,
      "debug_info" : "functional_1\/reflection_padding2d_15\/MirrorPad_pad",
      "pad_value" : 0,
      "top" : "functional_1\/reflection_padding2d_15\/MirrorPad_pad"
    },
    {
      "pad_r" : 0,
      "fused_relu" : 0,
      "fused_tanh" : 0,
      "debug_info" : "functional_1\/conv2d_15\/Conv2Dx",
      "pad_fill_mode" : 0,
      "pad_b" : 0,
      "pad_l" : 0,
      "top" : "functional_1\/conv2d_15\/Conv2Dx",
      "blob_weights" : 113,
      "K" : 256,
      "name" : "functional_1\/conv2d_15\/Conv2Dx",
      "has_batch_norm" : 0,
      "type" : "convolution",
      "n_groups" : 1,
      "pad_t" : 0,
      "has_biases" : 0,
      "C" : 256,
      "bottom" : "functional_1\/reflection_padding2d_15\/MirrorPad_pad",
      "weights" : {

      },
      "Nx" : 3,
      "pad_mode" : 0,
      "pad_value" : 0,
      "Ny" : 3,
      "n_parallel" : 1
    },
    {
      "axis_h" : 0,
      "axis_w" : 2,
      "bottom" : "functional_1\/conv2d_15\/Conv2Dx",
      "axis_k" : 1,
      "axis_n" : 3,
      "axis_seq" : 4,
      "weights" : {

      },
      "debug_info" : "functional_1\/conv2d_15\/Conv2D",
      "top" : "functional_1\/conv2d_15\/Conv2D",
      "type" : "transpose",
      "name" : "functional_1\/conv2d_15\/Conv2D"
    },
    {
      "top" : "functional_1\/conv2d_15\/BiasAdd\/ReadVariableOp",
      "w" : 256,
      "h" : 1,
      "name" : "functional_1\/conv2d_15\/BiasAdd\/ReadVariableOp",
      "nd_rank" : 1,
      "type" : "load_constant",
      "k" : 1,
      "bottom" : "",
      "debug_info" : "functional_1\/conv2d_15\/BiasAdd\/ReadVariableOp",
      "n" : 1,
      "weights" : {

      },
      "constant_blob" : 115
    },
    {
      "bottom" : "functional_1\/conv2d_15\/Conv2D,functional_1\/conv2d_15\/BiasAdd\/ReadVariableOp",
      "alpha" : 1,
      "operation" : 0,
      "weights" : {

      },
      "fused_relu" : 0,
      "debug_info" : "functional_1\/conv2d_15\/BiasAdd",
      "nd_mode" : true,
      "top" : "functional_1\/conv2d_15\/BiasAdd",
      "type" : "elementwise",
      "name" : "functional_1\/conv2d_15\/BiasAdd",
      "beta" : 0
    },
    {
      "axis_mode" : 4,
      "bottom" : "functional_1\/conv2d_15\/BiasAdd",
      "weights" : {

      },
      "mode" : 1,
      "nd_axis" : 1,
      "nd_mode" : true,
      "debug_info" : "functional_1\/instance_normalization_13\/Mean",
      "use_version" : 1,
      "top" : "functional_1\/conv2d_15\/BiasAdd1",
      "type" : "reduce",
      "name" : "functional_1\/instance_normalization_13\/Mean0"
    },
    {
      "axis_mode" : 2,
      "bottom" : "functional_1\/conv2d_15\/BiasAdd1",
      "weights" : {

      },
      "mode" : 1,
      "nd_axis" : 2,
      "nd_mode" : true,
      "debug_info" : "functional_1\/instance_normalization_13\/Mean",
      "use_version" : 1,
      "top" : "functional_1\/instance_normalization_13\/Mean",
      "type" : "reduce",
      "name" : "functional_1\/instance_normalization_13\/Mean"
    },
    {
      "axis_mode" : 4,
      "bottom" : "functional_1\/conv2d_15\/BiasAdd",
      "weights" : {

      },
      "mode" : 1,
      "nd_axis" : 1,
      "nd_mode" : true,
      "debug_info" : "functional_1\/instance_normalization_13\/reduce_std\/reduce_variance\/Mean",
      "use_version" : 1,
      "top" : "functional_1\/conv2d_15\/BiasAdd1",
      "type" : "reduce",
      "name" : "functional_1\/instance_normalization_13\/reduce_std\/reduce_variance\/Mean0"
    },
    {
      "axis_mode" : 2,
      "bottom" : "functional_1\/conv2d_15\/BiasAdd1",
      "weights" : {

      },
      "mode" : 1,
      "nd_axis" : 2,
      "nd_mode" : true,
      "debug_info" : "functional_1\/instance_normalization_13\/reduce_std\/reduce_variance\/Mean",
      "use_version" : 1,
      "top" : "functional_1\/instance_normalization_13\/reduce_std\/reduce_variance\/Mean",
      "type" : "reduce",
…
      "bottom" : "functional_1\/conv2d_19\/BiasAdd,functional_1\/instance_normalization_17\/Mean",
      "alpha" : 1,
      "operation" : 33,
      "weights" : {

      },
      "fused_relu" : 0,
      "debug_info" : "functional_1\/instance_normalization_17\/sub",
      "nd_mode" : true,
      "top" : "functional_1\/instance_normalization_17\/sub",
      "type" : "elementwise",
      "name" : "functional_1\/instance_normalization_17\/sub",
      "beta" : 0
    },
    {
      "bottom" : "functional_1\/conv2d_19\/BiasAdd,functional_1\/instance_normalization_17\/reduce_std\/reduce_variance\/Mean",
      "alpha" : 1,
      "operation" : 33,
      "weights" : {

      },
      "fused_relu" : 0,
      "debug_info" : "functional_1\/instance_normalization_17\/reduce_std\/reduce_variance\/sub",
      "nd_mode" : true,
      "top" : "functional_1\/instance_normalization_17\/reduce_std\/reduce_variance\/sub",
      "type" : "elementwise",
      "name" : "functional_1\/instance_normalization_17\/reduce_std\/reduce_variance\/sub",
      "beta" : 0
    },
    {
      "bottom" : "functional_1\/instance_normalization_17\/reduce_std\/reduce_variance\/sub",
      "alpha" : 2,
      "operation" : 13,
      "weights" : {

      },
      "fused_relu" : 0,
      "debug_info" : "functional_1\/instance_normalization_17\/reduce_std\/reduce_variance\/Square",
      "top" : "functional_1\/instance_normalization_17\/reduce_std\/reduce_variance\/Square",
      "type" : "elementwise",
      "name" : "functional_1\/instance_normalization_17\/reduce_std\/reduce_variance\/Square",
      "beta" : 0
    },
    {
      "axis_mode" : 4,
      "bottom" : "functional_1\/instance_normalization_17\/reduce_std\/reduce_variance\/Square",
      "weights" : {

      },
      "mode" : 1,
      "nd_axis" : 1,
      "nd_mode" : true,
      "debug_info" : "functional_1\/instance_normalization_17\/reduce_std\/reduce_variance\/Mean_1",
      "use_version" : 1,
      "top" : "functional_1\/instance_normalization_17\/reduce_std\/reduce_variance\/Square1",
      "type" : "reduce",
      "name" : "functional_1\/instance_normalization_17\/reduce_std\/reduce_variance\/Mean_10"
    },
    {
      "axis_mode" : 2,
      "bottom" : "functional_1\/instance_normalization_17\/reduce_std\/reduce_variance\/Square1",
      "weights" : {

      },
      "mode" : 1,
      "nd_axis" : 2,
      "nd_mode" : true,
      "debug_info" : "functional_1\/instance_normalization_17\/reduce_std\/reduce_variance\/Mean_1",
      "use_version" : 1,
      "top" : "functional_1\/instance_normalization_17\/reduce_std\/reduce_variance\/Mean_1",
      "type" : "reduce",
      "name" : "functional_1\/instance_normalization_17\/reduce_std\/reduce_variance\/Mean_1"
    },
    {
      "bottom" : "functional_1\/instance_normalization_17\/reduce_std\/reduce_variance\/Mean_1",
      "alpha" : 1,
      "operation" : 11,
      "weights" : {

      },
      "fused_relu" : 0,
      "debug_info" : "functional_1\/instance_normalization_17\/reduce_std\/Sqrt",
      "top" : "functional_1\/instance_normalization_17\/reduce_std\/Sqrt",
      "type" : "elementwise",
      "name" : "functional_1\/instance_normalization_17\/reduce_std\/Sqrt",
      "beta" : 0
    },
    {
      "bottom" : "functional_1\/instance_normalization_17\/reduce_std\/Sqrt",
      "alpha" : 9.9999997171806854e-10,
      "operation" : 0,
      "weights" : {

      },
      "fused_relu" : 0,
      "debug_info" : "functional_1\/instance_normalization_17\/add",
      "top" : "functional_1\/instance_normalization_17\/add",
      "type" : "elementwise",
      "name" : "functional_1\/instance_normalization_17\/add",
      "beta" : 0
    },
    {
      "bottom" : "functional_1\/instance_normalization_17\/sub,functional_1\/instance_normalization_17\/add",
      "alpha" : 1,
      "operation" : 102,
      "weights" : {

      },
      "fused_relu" : 0,
      "debug_info" : "functional_1\/instance_normalization_17\/truediv",
      "nd_mode" : true,
      "top" : "functional_1\/instance_normalization_17\/truediv",
      "type" : "elementwise",
      "name" : "functional_1\/instance_normalization_17\/truediv",
      "beta" : 0
    },
    {
      "top" : "functional_1\/instance_normalization_17\/Reshape",
      "w" : 256,
      "h" : 1,
      "name" : "functional_1\/instance_normalization_17\/Reshape",
      "nd_rank" : 4,
      "type" : "load_constant",
      "k" : 1,
      "bottom" : "",
      "debug_info" : "functional_1\/instance_normalization_17\/Reshape",
      "n" : 1,
      "weights" : {

      },
      "constant_blob" : 149
    },
    {
      "bottom" : "functional_1\/instance_normalization_17\/truediv,functional_1\/instance_normalization_17\/Reshape",
      "alpha" : 1,
      "operation" : 1,
      "weights" : {

      },
      "fused_relu" : 0,
      "debug_info" : "functional_1\/instance_normalization_17\/mul",
      "nd_mode" : true,
      "top" : "functional_1\/instance_normalization_17\/mul",
      "type" : "elementwise",
      "name" : "functional_1\/instance_normalization_17\/mul",
      "beta" : 0
    },
    {
      "top" : "functional_1\/instance_normalization_17\/Reshape_1",
      "w" : 256,
      "h" : 1,
      "name" : "functional_1\/instance_normalization_17\/Reshape_1",
      "nd_rank" : 4,
      "type" : "load_constant",
      "k" : 1,
      "bottom" : "",
      "debug_info" : "functional_1\/instance_normalization_17\/Reshape_1",
      "n" : 1,
      "weights" : {

      },
      "constant_blob" : 151
    },
    {
      "bottom" : "functional_1\/instance_normalization_17\/mul,functional_1\/instance_normalization_17\/Reshape_1",
      "alpha" : 1,
      "operation" : 0,
      "weights" : {

      },
      "fused_relu" : 0,
      "debug_info" : "functional_1\/instance_normalization_17\/add_1",
      "nd_mode" : true,
      "top" : "functional_1\/instance_normalization_17\/add_1",
      "type" : "elementwise",
      "name" : "functional_1\/instance_normalization_17\/add_1",
      "beta" : 0
    },
    {
      "bottom" : "functional_1\/instance_normalization_17\/add_1",
      "weights" : {

      },
      "mode" : 0,
      "debug_info" : "functional_1\/activation_10\/Relu",
      "top" : "functional_1\/activation_10\/Relu",
      "type" : "activation",
      "name" : "functional_1\/activation_10\/Relu"
    },
    {
      "axis_h" : 2,
      "axis_w" : 1,
      "bottom" : "functional_1\/activation_10\/Relu",
      "axis_k" : 0,
      "axis_n" : 3,
      "axis_seq" : 4,
      "weights" : {

      },
      "debug_info" : "functional_1\/reflection_padding2d_20\/MirrorPad_transpose_1",
      "top" : "functional_1\/reflection_padding2d_20\/MirrorPad_transpose_1",
      "type" : "transpose",
      "name" : "functional_1\/reflection_padding2d_20\/MirrorPad_transpose_1"
    },
    {
      "name" : "functional_1\/reflection_padding2d_20\/MirrorPad_pad",
      "weights" : {

      },
      "pad_pad_mode" : 0,
      "pad_t" : 1,
      "pad_r" : 1,
      "pad_b" : 1,
      "type" : "general_padding",
      "pad_fill_mode" : 2,
      "bottom" : "functional_1\/reflection_padding2d_20\/MirrorPad_transpose_1",
      "pad_l" : 1,
      "debug_info" : "functional_1\/reflection_padding2d_20\/MirrorPad_pad",
      "pad_value" : 0,
      "top" : "functional_1\/reflection_padding2d_20\/MirrorPad_pad"
    },
    {
      "pad_r" : 0,
      "fused_relu" : 0,
      "fused_tanh" : 0,
      "debug_info" : "functional_1\/conv2d_20\/Conv2Dx",
      "pad_fill_mode" : 0,
      "pad_b" : 0,
      "pad_l" : 0,
      "top" : "functional_1\/conv2d_20\/Conv2Dx",
      "blob_weights" : 153,
      "K" : 256,
      "name" : "functional_1\/conv2d_20\/Conv2Dx",
      "has_batch_norm" : 0,
      "type" : "convolution",
      "n_groups" : 1,
      "pad_t" : 0,
      "has_biases" : 0,
      "C" : 256,
      "bottom" : "functional_1\/reflection_padding2d_20\/MirrorPad_pad",
      "weights" : {

      },
      "Nx" : 3,
      "pad_mode" : 0,
      "pad_value" : 0,
      "Ny" : 3,
      "n_parallel" : 1
    },
    {
      "axis_h" : 0,
      "axis_w" : 2,
      "bottom" : "functional_1\/conv2d_20\/Conv2Dx",
      "axis_k" : 1,
      "axis_n" : 3,
      "axis_seq" : 4,
      "weights" : {

      },
      "debug_info" : "functional_1\/conv2d_20\/Conv2D",
      "top" : "functional_1\/conv2d_20\/Conv2D",
      "type" : "transpose",
      "name" : "functional_1\/conv2d_20\/Conv2D"
    },
    {
      "top" : "functional_1\/conv2d_20\/BiasAdd\/ReadVariableOp",
      "w" : 256,
      "h" : 1,
      "name" : "functional_1\/conv2d_20\/BiasAdd\/ReadVariableOp",
      "nd_rank" : 1,
      "type" : "load_constant",
      "k" : 1,
      "bottom" : "",
      "debug_info" : "functional_1\/conv2d_20\/BiasAdd\/ReadVariableOp",
      "n" : 1,
      "weights" : {

      },
      "constant_blob" : 155
    },
    {
      "bottom" : "functional_1\/conv2d_20\/Conv2D,functional_1\/conv2d_20\/BiasAdd\/ReadVariableOp",
      "alpha" : 1,
      "operation" : 0,
      "weights" : {

      },
      "fused_relu" : 0,
      "debug_info" : "functional_1\/conv2d_20\/BiasAdd",
      "nd_mode" : true,
      "top" : "functional_1\/conv2d_20\/BiasAdd",
      "type" : "elementwise",
      "name" : "functional_1\/conv2d_20\/BiasAdd",
      "beta" : 0
    },
    {
      "axis_mode" : 4,
      "bottom" : "functional_1\/conv2d_20\/BiasAdd",
      "weights" : {

      },
      "mode" : 1,
      "nd_axis" : 1,
      "nd_mode" : true,
      "debug_info" : "functional_1\/instance_normalization_18\/Mean",
      "use_version" : 1,
      "top" : "functional_1\/conv2d_20\/BiasAdd1",
      "type" : "reduce",
      "name" : "functional_1\/instance_normalization_18\/Mean0"
    },
    {
      "axis_mode" : 2,
      "bottom" : "functional_1\/conv2d_20\/BiasAdd1",
      "weights" : {

      },
      "mode" : 1,
      "nd_axis" : 2,
      "nd_mode" : true,
      "debug_info" : "functional_1\/instance_normalization_18\/Mean",
      "use_version" : 1,
      "top" : "functional_1\/instance_normalization_18\/Mean",
      "type" : "reduce",
      "name" : "functional_1\/instance_normalization_18\/Mean"
    },
    {
      "axis_mode" : 4,
      "bottom" : "functional_1\/conv2d_20\/BiasAdd",
      "weights" : {

      },
      "mode" : 1,
      "nd_axis" : 1,
      "nd_mode" : true,
      "debug_info" : "functional_1\/instance_normalization_18\/reduce_std\/reduce_variance\/Mean",
      "use_version" : 1,
      "top" : "functional_1\/conv2d_20\/BiasAdd1",
      "type" : "reduce",
      "name" : "functional_1\/instance_normalization_18\/reduce_std\/reduce_variance\/Mean0"
    },
    {
      "axis_mode" : 2,
      "bottom" : "functional_1\/conv2d_20\/BiasAdd1",
      "weights" : {

      },
      "mode" : 1,
      "nd_axis" : 2,
      "nd_mode" : true,
      "debug_info" : "functional_1\/instance_normalization_18\/reduce_std\/reduce_variance\/Mean",
      "use_version" : 1,
      "top" : "functional_1\/instance_normalization_18\/reduce_std\/reduce_variance\/Mean",
      "type" : "reduce",
      "name" : "functional_1\/instance_normalization_18\/reduce_std\/reduce_variance\/Mean"
    },
    {
      "bottom" : "functional_1\/conv2d_20\/BiasAdd,functional_1\/instance_normalization_18\/Mean",
      "alpha" : 1,
      "operation" : 33,
      "weights" : {

      },
      "fused_relu" : 0,
      "debug_info" : "functional_1\/instance_normalization_18\/sub",
      "nd_mode" : true,
      "top" : "functional_1\/instance_normalization_18\/sub",
      "type" : "elementwise",
      "name" : "functional_1\/instance_normalization_18\/sub",
      "beta" : 0
    },
    {
      "bottom" : "functional_1\/conv2d_20\/BiasAdd,functional_1\/instance_normalization_18\/reduce_std\/reduce_variance\/Mean",
      "alpha" : 1,
      "operation" : 33,
      "weights" : {

      },
      "fused_relu" : 0,
      "debug_info" : "functional_1\/instance_normalization_18\/reduce_std\/reduce_variance\/sub",
      "nd_mode" : true,
      "top" : "functional_1\/instance_normalization_18\/reduce_std\/reduce_variance\/sub",
      "type" : "elementwise",
      "name" : "functional_1\/instance_normalization_18\/reduce_std\/reduce_variance\/sub",
      "beta" : 0
    },
    {
      "bottom" : "functional_1\/instance_normalization_18\/reduce_std\/reduce_variance\/sub",
      "alpha" : 2,
      "operation" : 13,
      "weights" : {

      },
      "fused_relu" : 0,
      "debug_info" : "functional_1\/instance_normalization_18\/reduce_std\/reduce_variance\/Square",
      "top" : "functional_1\/instance_normalization_18\/reduce_std\/reduce_variance\/Square",
      "type" : "elementwise",
      "name" : "functional_1\/instance_normalization_18\/reduce_std\/reduce_variance\/Square",
      "beta" : 0
    },
    {
      "axis_mode" : 4,
      "bottom" : "functional_1\/instance_normalization_18\/reduce_std\/reduce_variance\/Square",
      "weights" : {

      },
      "mode" : 1,
      "nd_axis" : 1,
      "nd_mode" : true,
      "debug_info" : "functional_1\/instance_normalization_18\/reduce_std\/reduce_variance\/Mean_1",
      "use_version" : 1,
      "top" : "functional_1\/instance_normalization_18\/reduce_std\/reduce_variance\/Square1",
      "type" : "reduce",
      "name" : "functional_1\/instance_normalization_18\/reduce_std\/reduce_variance\/Mean_10"
    },
    {
      "axis_mode" : 2,
      "bottom" : "functional_1\/instance_normalization_18\/reduce_std\/reduce_variance\/Square1",
      "weights" : {

      },
      "mode" : 1,
      "nd_axis" : 2,
      "nd_mode" : true,
      "debug_info" : "functional_1\/instance_normalization_18\/reduce_std\/reduce_variance\/Mean_1",
      "use_version" : 1,
      "top" : "functional_1\/instance_normalization_18\/reduce_std\/reduce_variance\/Mean_1",
      "type" : "reduce",
      "name" : "functional_1\/instance_normalization_18\/reduce_std\/reduce_variance\/Mean_1"
    },
    {
      "bottom" : "functional_1\/instance_normalization_18\/reduce_std\/reduce_variance\/Mean_1",
      "alpha" : 1,
      "operation" : 11,
      "weights" : {

      },
      "fused_relu" : 0,
      "debug_info" : "functional_1\/instance_normalization_18\/reduce_std\/Sqrt",
      "top" : "functional_1\/instance_normalization_18\/reduce_std\/Sqrt",
      "type" : "elementwise",
      "name" : "functional_1\/instance_normalization_18\/reduce_std\/Sqrt",
      "beta" : 0
    },
    {
      "bottom" : "functional_1\/instance_normalization_18\/reduce_std\/Sqrt",
      "alpha" : 9.9999997171806854e-10,
      "operation" : 0,
      "weights" : {

      },
      "fused_relu" : 0,
      "debug_info" : "functional_1\/instance_normalization_18\/add",
      "top" : "functional_1\/instance_normalization_18\/add",
      "type" : "elementwise",
      "name" : "functional_1\/instance_normalization_18\/add",
      "beta" : 0
    },
    {
      "bottom" : "functional_1\/instance_normalization_18\/sub,functional_1\/instance_normalization_18\/add",
      "alpha" : 1,
      "operation" : 102,
      "weights" : {

      },
      "fused_relu" : 0,
      "debug_info" : "functional_1\/instance_normalization_18\/truediv",
      "nd_mode" : true,
      "top" : "functional_1\/instance_normalization_18\/truediv",
      "type" : "elementwise",
      "name" : "functional_1\/instance_normalization_18\/truediv",
      "beta" : 0
    },
    {
      "top" : "functional_1\/instance_normalization_18\/Reshape",
      "w" : 256,
      "h" : 1,
      "name" : "functional_1\/instance_normalization_18\/Reshape",
      "nd_rank" : 4,
      "type" : "load_constant",
      "k" : 1,
      "bottom" : "",
      "debug_info" : "functional_1\/instance_normalization_18\/Reshape",
      "n" : 1,
      "weights" : {

      },
      "constant_blob" : 157
    },
    {
      "bottom" : "functional_1\/instance_normalization_18\/truediv,functional_1\/instance_normalization_18\/Reshape",
      "alpha" : 1,
      "operation" : 1,
      "weights" : {

      },
      "fused_relu" : 0,
      "debug_info" : "functional_1\/instance_normalization_18\/mul",
      "nd_mode" : true,
      "top" : "functional_1\/instance_normalization_18\/mul",
      "type" : "elementwise",
      "name" : "functional_1\/instance_normalization_18\/mul",
      "beta" : 0
    },
    {
      "top" : "functional_1\/instance_normalization_18\/Reshape_1",
      "w" : 256,
      "h" : 1,
      "name" : "functional_1\/instance_normalization_18\/Reshape_1",
      "nd_rank" : 4,
      "type" : "load_constant",
      "k" : 1,
      "bottom" : "",
      "debug_info" : "functional_1\/instance_normalization_18\/Reshape_1",
      "n" : 1,
      "weights" : {

      },
      "constant_blob" : 159
    },
    {
      "bottom" : "functional_1\/instance_normalization_18\/mul,functional_1\/instance_normalization_18\/Reshape_1",
      "alpha" : 1,
      "operation" : 0,
      "weights" : {

      },
      "fused_relu" : 0,
      "debug_info" : "functional_1\/instance_normalization_18\/add_1",
      "nd_mode" : true,
      "top" : "functional_1\/instance_normalization_18\/add_1",
      "type" : "elementwise",
      "name" : "functional_1\/instance_normalization_18\/add_1",
      "beta" : 0
    },
    {
      "bottom" : "functional_1\/instance_normalization_18\/add_1,functional_1\/add_6\/add",
      "alpha" : 1,
      "operation" : 0,
      "weights" : {

      },
      "fused_relu" : 0,
      "debug_info" : "functional_1\/add_7\/add",
      "top" : "functional_1\/add_7\/add",
      "type" : "elementwise",
      "name" : "functional_1\/add_7\/add",
      "beta" : 0
    },
    {
      "axis_h" : 2,
      "axis_w" : 1,
      "bottom" : "functional_1\/add_7\/add",
      "axis_k" : 0,
      "axis_n" : 3,
      "axis_seq" : 4,
      "weights" : {

      },
      "debug_info" : "transpose_43",
      "top" : "transpose_43",
      "type" : "transpose",
      "name" : "transpose_43"
    },
    {
      "pad_r" : 0,
      "fused_relu" : 0,
      "fused_tanh" : 0,
      "debug_info" : "functional_1\/conv2d_transpose\/conv2d_transposex",
      "pad_fill_mode" : 0,
      "pad_b" : 0,
      "pad_l" : 0,
      "top" : "functional_1\/conv2d_transpose\/conv2d_transposex",
      "blob_weights" : 161,
      "K" : 256,
      "stride_x" : 2,
      "name" : "functional_1\/conv2d_transpose\/conv2d_transposex",
      "deconv_out_height" : 129,
      "has_batch_norm" : 0,
      "type" : "deconvolution",
      "n_groups" : 1,
      "pad_t" : 0,
      "stride_y" : 2,
      "has_biases" : 0,
      "C" : 128,
      "bottom" : "transpose_43",
      "weights" : {

      },
      "Nx" : 3,
      "pad_mode" : 0,
      "deconv_out_width" : 129,
      "pad_value" : 0,
      "Ny" : 3,
      "n_parallel" : 1
    },
    {
      "axis_h" : 0,
      "axis_w" : 2,
      "bottom" : "functional_1\/conv2d_transpose\/conv2d_transposex",
      "axis_k" : 1,
      "axis_n" : 3,
      "axis_seq" : 4,
      "weights" : {

      },
      "debug_info" : "functional_1\/conv2d_transpose\/conv2d_transpose",
      "top" : "functional_1\/conv2d_transpose\/conv2d_transpose",
      "type" : "transpose",
      "name" : "functional_1\/conv2d_transpose\/conv2d_transpose"
    },
    {
      "top" : "functional_1\/conv2d_transpose\/BiasAdd\/ReadVariableOp",
      "w" : 128,
      "h" : 1,
      "name" : "functional_1\/conv2d_transpose\/BiasAdd\/ReadVariableOp",
      "nd_rank" : 1,
      "type" : "load_constant",
      "k" : 1,
      "bottom" : "",
      "debug_info" : "functional_1\/conv2d_transpose\/BiasAdd\/ReadVariableOp",
      "n" : 1,
      "weights" : {

      },
      "constant_blob" : 163
    },
    {
      "bottom" : "functional_1\/conv2d_transpose\/conv2d_transpose,functional_1\/conv2d_transpose\/BiasAdd\/ReadVariableOp",
      "alpha" : 1,
      "operation" : 0,
      "weights" : {

      },
      "fused_relu" : 0,
      "debug_info" : "functional_1\/conv2d_transpose\/BiasAdd",
      "nd_mode" : true,
      "top" : "functional_1\/conv2d_transpose\/BiasAdd",
      "type" : "elementwise",
      "name" : "functional_1\/conv2d_transpose\/BiasAdd",
      "beta" : 0
    },
    {
      "begin_n" : 0,
      "end_mask_h" : true,
      "end_w" : 0,
      "end_h" : 0,
      "begin_h" : 1,
      "stride_n" : 1,
      "end_seq" : 1,
      "begin_mask_seq" : false,
      "begin_mask_h" : false,
      "squeeze_mask_h" : false,
      "stride_k" : 1,
      "type" : "general_slice",
      "begin_mask_k" : false,
      "begin_w" : 0,
      "end_mask_k" : true,
      "weights" : {

      },
      "stride_h" : 1,
      "begin_mask_n" : true,
      "name" : "functional_1\/cropping2d\/strided_slice",
      "stride_seq" : 1,
      "end_k" : 0,
      "top" : "functional_1\/cropping2d\/strided_slice",
      "begin_seq" : 0,
      "squeeze_mask_k" : false,
      "begin_k" : 1,
      "end_mask_w" : true,
      "end_mask_seq" : false,
      "end_mask_n" : true,
      "debug_info" : "functional_1\/cropping2d\/strided_slice",
      "stride_w" : 1,
      "squeeze_mask_seq" : false,
      "begin_mask_w" : true,
      "bottom" : "functional_1\/conv2d_transpose\/BiasAdd",
      "end_n" : 0,
      "squeeze_mask_w" : false,
      "squeeze_mask_n" : false
    },
    {
      "axis_h" : 2,
      "axis_w" : 1,
      "bottom" : "functional_1\/cropping2d\/strided_slice",
      "axis_k" : 0,
      "axis_n" : 3,
      "axis_seq" : 4,
      "weights" : {

      },
      "debug_info" : "functional_1\/reflection_padding2d_21\/MirrorPad_transpose_1",
      "top" : "functional_1\/reflection_padding2d_21\/MirrorPad_transpose_1",
      "type" : "transpose",
      "name" : "functional_1\/reflection_padding2d_21\/MirrorPad_transpose_1"
    },
    {
      "name" : "functional_1\/reflection_padding2d_21\/MirrorPad_pad",
      "weights" : {

      },
      "pad_pad_mode" : 0,
      "pad_t" : 1,
      "pad_r" : 1,
      "pad_b" : 1,
      "type" : "general_padding",
      "pad_fill_mode" : 2,
      "bottom" : "functional_1\/reflection_padding2d_21\/MirrorPad_transpose_1",
      "pad_l" : 1,
      "debug_info" : "functional_1\/reflection_padding2d_21\/MirrorPad_pad",
      "pad_value" : 0,
      "top" : "functional_1\/reflection_padding2d_21\/MirrorPad_pad"
    },
    {
      "pad_r" : 0,
      "fused_relu" : 0,
      "fused_tanh" : 0,
      "debug_info" : "functional_1\/conv2d_21\/Conv2Dx",
      "pad_fill_mode" : 0,
      "pad_b" : 0,
      "pad_l" : 0,
      "top" : "functional_1\/conv2d_21\/Conv2Dx",
      "blob_weights" : 165,
      "K" : 128,
      "name" : "functional_1\/conv2d_21\/Conv2Dx",
      "has_batch_norm" : 0,
      "type" : "convolution",
      "n_groups" : 1,
      "pad_t" : 0,
      "has_biases" : 0,
      "C" : 128,
      "bottom" : "functional_1\/reflection_padding2d_21\/MirrorPad_pad",
      "weights" : {

      },
      "Nx" : 3,
      "pad_mode" : 0,
      "pad_value" : 0,
      "Ny" : 3,
      "n_parallel" : 1
    },
    {
      "axis_h" : 0,
      "axis_w" : 2,
      "bottom" : "functional_1\/conv2d_21\/Conv2Dx",
      "axis_k" : 1,
      "axis_n" : 3,
      "axis_seq" : 4,
      "weights" : {

      },
      "debug_info" : "functional_1\/conv2d_21\/Conv2D",
      "top" : "functional_1\/conv2d_21\/Conv2D",
      "type" : "transpose",
      "name" : "functional_1\/conv2d_21\/Conv2D"
    },
    {
      "top" : "functional_1\/conv2d_21\/BiasAdd\/ReadVariableOp",
      "w" : 128,
      "h" : 1,
      "name" : "functional_1\/conv2d_21\/BiasAdd\/ReadVariableOp",
      "nd_rank" : 1,
      "type" : "load_constant",
      "k" : 1,
      "bottom" : "",
      "debug_info" : "functional_1\/conv2d_21\/BiasAdd\/ReadVariableOp",
      "n" : 1,
      "weights" : {

      },
      "constant_blob" : 167
    },
    {
      "bottom" : "functional_1\/conv2d_21\/Conv2D,functional_1\/conv2d_21\/BiasAdd\/ReadVariableOp",
      "alpha" : 1,
      "operation" : 0,
      "weights" : {

      },
      "fused_relu" : 0,
      "debug_info" : "functional_1\/conv2d_21\/BiasAdd",
      "nd_mode" : true,
      "top" : "functional_1\/conv2d_21\/BiasAdd",
      "type" : "elementwise",
      "name" : "functional_1\/conv2d_21\/BiasAdd",
      "beta" : 0
    },
    {
      "axis_mode" : 4,
      "bottom" : "functional_1\/conv2d_21\/BiasAdd",
      "weights" : {

      },
      "mode" : 1,
      "nd_axis" : 1,
      "nd_mode" : true,
      "debug_info" : "functional_1\/instance_normalization_19\/Mean",
      "use_version" : 1,
      "top" : "functional_1\/conv2d_21\/BiasAdd1",
      "type" : "reduce",
      "name" : "functional_1\/instance_normalization_19\/Mean0"
    },
    {
      "axis_mode" : 2,
      "bottom" : "functional_1\/conv2d_21\/BiasAdd1",
      "weights" : {

      },
      "mode" : 1,
      "nd_axis" : 2,
      "nd_mode" : true,
      "debug_info" : "functional_1\/instance_normalization_19\/Mean",
      "use_version" : 1,
      "top" : "functional_1\/instance_normalization_19\/Mean",
      "type" : "reduce",
      "name" : "functional_1\/instance_normalization_19\/Mean"
    },
    {
      "axis_mode" : 4,
      "bottom" : "functional_1\/conv2d_21\/BiasAdd",
      "weights" : {

      },
      "mode" : 1,
      "nd_axis" : 1,
      "nd_mode" : true,
      "debug_info" : "functional_1\/instance_normalization_19\/reduce_std\/reduce_variance\/Mean",
      "use_version" : 1,
      "top" : "functional_1\/conv2d_21\/BiasAdd1",
      "type" : "reduce",
      "name" : "functional_1\/instance_normalization_19\/reduce_std\/reduce_variance\/Mean0"
    },
    {
      "axis_mode" : 2,
      "bottom" : "functional_1\/conv2d_21\/BiasAdd1",
      "weights" : {

      },
      "mode" : 1,
      "nd_axis" : 2,
      "nd_mode" : true,
      "debug_info" : "functional_1\/instance_normalization_19\/reduce_std\/reduce_variance\/Mean",
      "use_version" : 1,
      "top" : "functional_1\/instance_normalization_19\/reduce_std\/reduce_variance\/Mean",
      "type" : "reduce",
      "name" : "functional_1\/instance_normalization_19\/reduce_std\/reduce_variance\/Mean"
    },
    {
      "bottom" : "functional_1\/conv2d_21\/BiasAdd,functional_1\/instance_normalization_19\/Mean",
      "alpha" : 1,
      "operation" : 33,
      "weights" : {

      },
      "fused_relu" : 0,
      "debug_info" : "functional_1\/instance_normalization_19\/sub",
      "nd_mode" : true,
      "top" : "functional_1\/instance_normalization_19\/sub",
      "type" : "elementwise",
      "name" : "functional_1\/instance_normalization_19\/sub",
      "beta" : 0
    },
    {
      "bottom" : "functional_1\/conv2d_21\/BiasAdd,functional_1\/instance_normalization_19\/reduce_std\/reduce_variance\/Mean",
      "alpha" : 1,
      "operation" : 33,
      "weights" : {

      },
      "fused_relu" : 0,
      "debug_info" : "functional_1\/instance_normalization_19\/reduce_std\/reduce_variance\/sub",
      "nd_mode" : true,
      "top" : "functional_1\/instance_normalization_19\/reduce_std\/reduce_variance\/sub",
      "type" : "elementwise",
      "name" : "functional_1\/instance_normalization_19\/reduce_std\/reduce_variance\/sub",
      "beta" : 0
    },
    {
      "bottom" : "functional_1\/instance_normalization_19\/reduce_std\/reduce_variance\/sub",
      "alpha" : 2,
      "operation" : 13,
      "weights" : {

      },
      "fused_relu" : 0,
      "debug_info" : "functional_1\/instance_normalization_19\/reduce_std\/reduce_variance\/Square",
      "top" : "functional_1\/instance_normalization_19\/reduce_std\/reduce_variance\/Square",
      "type" : "elementwise",
      "name" : "functional_1\/instance_normalization_19\/reduce_std\/reduce_variance\/Square",
      "beta" : 0
    },
    {
      "axis_mode" : 4,
      "bottom" : "functional_1\/instance_normalization_19\/reduce_std\/reduce_variance\/Square",
      "weights" : {

      },
      "mode" : 1,
      "nd_axis" : 1,
      "nd_mode" : true,
      "debug_info" : "functional_1\/instance_normalization_19\/reduce_std\/reduce_variance\/Mean_1",
      "use_version" : 1,
      "top" : "functional_1\/instance_normalization_19\/reduce_std\/reduce_variance\/Square1",
      "type" : "reduce",
      "name" : "functional_1\/instance_normalization_19\/reduce_std\/reduce_variance\/Mean_10"
    },
    {
      "axis_mode" : 2,
      "bottom" : "functional_1\/instance_normalization_19\/reduce_std\/reduce_variance\/Square1",
      "weights" : {

      },
      "mode" : 1,
      "nd_axis" : 2,
      "nd_mode" : true,
      "debug_info" : "functional_1\/instance_normalization_19\/reduce_std\/reduce_variance\/Mean_1",
      "use_version" : 1,
      "top" : "functional_1\/instance_normalization_19\/reduce_std\/reduce_variance\/Mean_1",
      "type" : "reduce",
      "name" : "functional_1\/instance_normalization_19\/reduce_std\/reduce_variance\/Mean_1"
    },
    {
      "bottom" : "functional_1\/instance_normalization_19\/reduce_std\/reduce_variance\/Mean_1",
      "alpha" : 1,
      "operation" : 11,
      "weights" : {

      },
      "fused_relu" : 0,
      "debug_info" : "functional_1\/instance_normalization_19\/reduce_std\/Sqrt",
      "top" : "functional_1\/instance_normalization_19\/reduce_std\/Sqrt",
      "type" : "elementwise",
      "name" : "functional_1\/instance_normalization_19\/reduce_std\/Sqrt",
      "beta" : 0
    },
    {
      "bottom" : "functional_1\/instance_normalization_19\/reduce_std\/Sqrt",
      "alpha" : 9.9999997171806854e-10,
      "operation" : 0,
      "weights" : {

      },
      "fused_relu" : 0,
      "debug_info" : "functional_1\/instance_normalization_19\/add",
      "top" : "functional_1\/instance_normalization_19\/add",
      "type" : "elementwise",
      "name" : "functional_1\/instance_normalization_19\/add",
      "beta" : 0
    },
    {
      "bottom" : "functional_1\/instance_normalization_19\/sub,functional_1\/instance_normalization_19\/add",
      "alpha" : 1,
      "operation" : 102,
      "weights" : {

      },
      "fused_relu" : 0,
      "debug_info" : "functional_1\/instance_normalization_19\/truediv",
      "nd_mode" : true,
      "top" : "functional_1\/instance_normalization_19\/truediv",
      "type" : "elementwise",
      "name" : "functional_1\/instance_normalization_19\/truediv",
      "beta" : 0
    },
    {
      "top" : "functional_1\/instance_normalization_19\/Reshape",
      "w" : 128,
      "h" : 1,
      "name" : "functional_1\/instance_normalization_19\/Reshape",
      "nd_rank" : 4,
      "type" : "load_constant",
      "k" : 1,
      "bottom" : "",
      "debug_info" : "functional_1\/instance_normalization_19\/Reshape",
      "n" : 1,
      "weights" : {

      },
      "constant_blob" : 169
    },
    {
      "bottom" : "functional_1\/instance_normalization_19\/truediv,functional_1\/instance_normalization_19\/Reshape",
      "alpha" : 1,
      "operation" : 1,
      "weights" : {

      },
      "fused_relu" : 0,
      "debug_info" : "functional_1\/instance_normalization_19\/mul",
      "nd_mode" : true,
      "top" : "functional_1\/instance_normalization_19\/mul",
      "type" : "elementwise",
      "name" : "functional_1\/instance_normalization_19\/mul",
      "beta" : 0
    },
    {
      "top" : "functional_1\/instance_normalization_19\/Reshape_1",
      "w" : 128,
      "h" : 1,
      "name" : "functional_1\/instance_normalization_19\/Reshape_1",
      "nd_rank" : 4,
      "type" : "load_constant",
      "k" : 1,
      "bottom" : "",
      "debug_info" : "functional_1\/instance_normalization_19\/Reshape_1",
      "n" : 1,
      "weights" : {

      },
      "constant_blob" : 171
    },
    {
      "bottom" : "functional_1\/instance_normalization_19\/mul,functional_1\/instance_normalization_19\/Reshape_1",
      "alpha" : 1,
      "operation" : 0,
      "weights" : {

      },
      "fused_relu" : 0,
      "debug_info" : "functional_1\/instance_normalization_19\/add_1",
      "nd_mode" : true,
      "top" : "functional_1\/instance_normalization_19\/add_1",
      "type" : "elementwise",
      "name" : "functional_1\/instance_normalization_19\/add_1",
      "beta" : 0
    },
    {
      "bottom" : "functional_1\/instance_normalization_19\/add_1",
      "weights" : {

      },
      "mode" : 0,
      "debug_info" : "functional_1\/activation_11\/Relu",
      "top" : "functional_1\/activation_11\/Relu",
      "type" : "activation",
      "name" : "functional_1\/activation_11\/Relu"
    },
    {
      "axis_h" : 2,
      "axis_w" : 1,
      "bottom" : "functional_1\/activation_11\/Relu",
      "axis_k" : 0,
      "axis_n" : 3,
      "axis_seq" : 4,
      "weights" : {

      },
      "debug_info" : "transpose_47",
      "top" : "transpose_47",
      "type" : "transpose",
      "name" : "transpose_47"
    },
    {
      "pad_r" : 0,
      "fused_relu" : 0,
      "fused_tanh" : 0,
      "debug_info" : "functional_1\/conv2d_transpose_1\/conv2d_transposex",
      "pad_fill_mode" : 0,
      "pad_b" : 0,
      "pad_l" : 0,
      "top" : "functional_1\/conv2d_transpose_1\/conv2d_transposex",
      "blob_weights" : 173,
      "K" : 128,
      "stride_x" : 2,
      "name" : "functional_1\/conv2d_transpose_1\/conv2d_transposex",
      "deconv_out_height" : 257,
      "has_batch_norm" : 0,
      "type" : "deconvolution",
      "n_groups" : 1,
      "pad_t" : 0,
      "stride_y" : 2,
      "has_biases" : 0,
      "C" : 64,
      "bottom" : "transpose_47",
      "weights" : {

      },
      "Nx" : 3,
      "pad_mode" : 0,
      "deconv_out_width" : 257,
      "pad_value" : 0,
      "Ny" : 3,
      "n_parallel" : 1
    },
    {
      "axis_h" : 0,
      "axis_w" : 2,
      "bottom" : "functional_1\/conv2d_transpose_1\/conv2d_transposex",
      "axis_k" : 1,
      "axis_n" : 3,
      "axis_seq" : 4,
      "weights" : {

      },
      "debug_info" : "functional_1\/conv2d_transpose_1\/conv2d_transpose",
      "top" : "functional_1\/conv2d_transpose_1\/conv2d_transpose",
      "type" : "transpose",
      "name" : "functional_1\/conv2d_transpose_1\/conv2d_transpose"
    },
    {
      "top" : "functional_1\/conv2d_transpose_1\/BiasAdd\/ReadVariableOp",
      "w" : 64,
      "h" : 1,
      "name" : "functional_1\/conv2d_transpose_1\/BiasAdd\/ReadVariableOp",
      "nd_rank" : 1,
      "type" : "load_constant",
      "k" : 1,
      "bottom" : "",
      "debug_info" : "functional_1\/conv2d_transpose_1\/BiasAdd\/ReadVariableOp",
      "n" : 1,
      "weights" : {

      },
      "constant_blob" : 175
    },
    {
      "bottom" : "functional_1\/conv2d_transpose_1\/conv2d_transpose,functional_1\/conv2d_transpose_1\/BiasAdd\/ReadVariableOp",
      "alpha" : 1,
      "operation" : 0,
      "weights" : {

      },
      "fused_relu" : 0,
      "debug_info" : "functional_1\/conv2d_transpose_1\/BiasAdd",
      "nd_mode" : true,
      "top" : "functional_1\/conv2d_transpose_1\/BiasAdd",
      "type" : "elementwise",
      "name" : "functional_1\/conv2d_transpose_1\/BiasAdd",
      "beta" : 0
    },
    {
      "begin_n" : 0,
      "end_mask_h" : true,
      "end_w" : 0,
      "end_h" : 0,
      "begin_h" : 1,
      "stride_n" : 1,
      "end_seq" : 1,
      "begin_mask_seq" : false,
      "begin_mask_h" : false,
      "squeeze_mask_h" : false,
      "stride_k" : 1,
      "type" : "general_slice",
      "begin_mask_k" : false,
      "begin_w" : 0,
      "end_mask_k" : true,
      "weights" : {

      },
      "stride_h" : 1,
      "begin_mask_n" : true,
      "name" : "functional_1\/cropping2d_1\/strided_slice",
      "stride_seq" : 1,
      "end_k" : 0,
      "top" : "functional_1\/cropping2d_1\/strided_slice",
      "begin_seq" : 0,
      "squeeze_mask_k" : false,
      "begin_k" : 1,
      "end_mask_w" : true,
      "end_mask_seq" : false,
      "end_mask_n" : true,
      "debug_info" : "functional_1\/cropping2d_1\/strided_slice",
      "stride_w" : 1,
      "squeeze_mask_seq" : false,
      "begin_mask_w" : true,
      "bottom" : "functional_1\/conv2d_transpose_1\/BiasAdd",
      "end_n" : 0,
      "squeeze_mask_w" : false,
      "squeeze_mask_n" : false
    },
    {
      "axis_h" : 2,
      "axis_w" : 1,
      "bottom" : "functional_1\/cropping2d_1\/strided_slice",
      "axis_k" : 0,
      "axis_n" : 3,
      "axis_seq" : 4,
      "weights" : {

      },
      "debug_info" : "functional_1\/reflection_padding2d_22\/MirrorPad_transpose_1",
      "top" : "functional_1\/reflection_padding2d_22\/MirrorPad_transpose_1",
      "type" : "transpose",
      "name" : "functional_1\/reflection_padding2d_22\/MirrorPad_transpose_1"
    },
    {
      "name" : "functional_1\/reflection_padding2d_22\/MirrorPad_pad",
      "weights" : {

      },
      "pad_pad_mode" : 0,
      "pad_t" : 1,
      "pad_r" : 1,
      "pad_b" : 1,
      "type" : "general_padding",
      "pad_fill_mode" : 2,
      "bottom" : "functional_1\/reflection_padding2d_22\/MirrorPad_transpose_1",
      "pad_l" : 1,
      "debug_info" : "functional_1\/reflection_padding2d_22\/MirrorPad_pad",
      "pad_value" : 0,
      "top" : "functional_1\/reflection_padding2d_22\/MirrorPad_pad"
    },
    {
      "pad_r" : 0,
      "fused_relu" : 0,
      "fused_tanh" : 0,
      "debug_info" : "functional_1\/conv2d_22\/Conv2Dx",
      "pad_fill_mode" : 0,
      "pad_b" : 0,
      "pad_l" : 0,
      "top" : "functional_1\/conv2d_22\/Conv2Dx",
      "blob_weights" : 177,
      "K" : 64,
      "name" : "functional_1\/conv2d_22\/Conv2Dx",
      "has_batch_norm" : 0,
      "type" : "convolution",
      "n_groups" : 1,
      "pad_t" : 0,
      "has_biases" : 0,
      "C" : 64,
      "bottom" : "functional_1\/reflection_padding2d_22\/MirrorPad_pad",
      "weights" : {

      },
      "Nx" : 3,
      "pad_mode" : 0,
      "pad_value" : 0,
      "Ny" : 3,
      "n_parallel" : 1
    },
    {
      "axis_h" : 0,
      "axis_w" : 2,
      "bottom" : "functional_1\/conv2d_22\/Conv2Dx",
      "axis_k" : 1,
      "axis_n" : 3,
      "axis_seq" : 4,
      "weights" : {

      },
      "debug_info" : "functional_1\/conv2d_22\/Conv2D",
      "top" : "functional_1\/conv2d_22\/Conv2D",
      "type" : "transpose",
      "name" : "functional_1\/conv2d_22\/Conv2D"
    },
    {
      "top" : "functional_1\/conv2d_22\/BiasAdd\/ReadVariableOp",
      "w" : 64,
      "h" : 1,
      "name" : "functional_1\/conv2d_22\/BiasAdd\/ReadVariableOp",
      "nd_rank" : 1,
      "type" : "load_constant",
      "k" : 1,
      "bottom" : "",
      "debug_info" : "functional_1\/conv2d_22\/BiasAdd\/ReadVariableOp",
      "n" : 1,
      "weights" : {

      },
      "constant_blob" : 179
    },
    {
      "bottom" : "functional_1\/conv2d_22\/Conv2D,functional_1\/conv2d_22\/BiasAdd\/ReadVariableOp",
      "alpha" : 1,
      "operation" : 0,
      "weights" : {

      },
      "fused_relu" : 0,
      "debug_info" : "functional_1\/conv2d_22\/BiasAdd",
      "nd_mode" : true,
      "top" : "functional_1\/conv2d_22\/BiasAdd",
      "type" : "elementwise",
      "name" : "functional_1\/conv2d_22\/BiasAdd",
      "beta" : 0
    },
    {
      "axis_mode" : 4,
      "bottom" : "functional_1\/conv2d_22\/BiasAdd",
      "weights" : {

      },
      "mode" : 1,
      "nd_axis" : 1,
      "nd_mode" : true,
      "debug_info" : "functional_1\/instance_normalization_20\/Mean",
      "use_version" : 1,
      "top" : "functional_1\/conv2d_22\/BiasAdd1",
      "type" : "reduce",
      "name" : "functional_1\/instance_normalization_20\/Mean0"
    },
    {
      "axis_mode" : 2,
      "bottom" : "functional_1\/conv2d_22\/BiasAdd1",
      "weights" : {

      },
      "mode" : 1,
      "nd_axis" : 2,
      "nd_mode" : true,
      "debug_info" : "functional_1\/instance_normalization_20\/Mean",
      "use_version" : 1,
      "top" : "functional_1\/instance_normalization_20\/Mean",
      "type" : "reduce",
      "name" : "functional_1\/instance_normalization_20\/Mean"
    },
    {
      "axis_mode" : 4,
      "bottom" : "functional_1\/conv2d_22\/BiasAdd",
      "weights" : {

      },
      "mode" : 1,
      "nd_axis" : 1,
      "nd_mode" : true,
      "debug_info" : "functional_1\/instance_normalization_20\/reduce_std\/reduce_variance\/Mean",
      "use_version" : 1,
      "top" : "functional_1\/conv2d_22\/BiasAdd1",
      "type" : "reduce",
      "name" : "functional_1\/instance_normalization_20\/reduce_std\/reduce_variance\/Mean0"
    },
    {
      "axis_mode" : 2,
      "bottom" : "functional_1\/conv2d_22\/BiasAdd1",
      "weights" : {

      },
      "mode" : 1,
      "nd_axis" : 2,
      "nd_mode" : true,
      "debug_info" : "functional_1\/instance_normalization_20\/reduce_std\/reduce_variance\/Mean",
      "use_version" : 1,
      "top" : "functional_1\/instance_normalization_20\/reduce_std\/reduce_variance\/Mean",
      "type" : "reduce",
      "name" : "functional_1\/instance_normalization_20\/reduce_std\/reduce_variance\/Mean"
    },
    {
      "bottom" : "functional_1\/conv2d_22\/BiasAdd,functional_1\/instance_normalization_20\/Mean",
      "alpha" : 1,
      "operation" : 33,
      "weights" : {

      },
      "fused_relu" : 0,
      "debug_info" : "functional_1\/instance_normalization_20\/sub",
      "nd_mode" : true,
      "top" : "functional_1\/instance_normalization_20\/sub",
      "type" : "elementwise",
      "name" : "functional_1\/instance_normalization_20\/sub",
      "beta" : 0
    },
    {
      "bottom" : "functional_1\/conv2d_22\/BiasAdd,functional_1\/instance_normalization_20\/reduce_std\/reduce_variance\/Mean",
      "alpha" : 1,
      "operation" : 33,
      "weights" : {

      },
      "fused_relu" : 0,
      "debug_info" : "functional_1\/instance_normalization_20\/reduce_std\/reduce_variance\/sub",
      "nd_mode" : true,
      "top" : "functional_1\/instance_normalization_20\/reduce_std\/reduce_variance\/sub",
      "type" : "elementwise",
      "name" : "functional_1\/instance_normalization_20\/reduce_std\/reduce_variance\/sub",
      "beta" : 0
    },
    {
      "bottom" : "functional_1\/instance_normalization_20\/reduce_std\/reduce_variance\/sub",
      "alpha" : 2,
      "operation" : 13,
      "weights" : {

      },
      "fused_relu" : 0,
      "debug_info" : "functional_1\/instance_normalization_20\/reduce_std\/reduce_variance\/Square",
      "top" : "functional_1\/instance_normalization_20\/reduce_std\/reduce_variance\/Square",
      "type" : "elementwise",
      "name" : "functional_1\/instance_normalization_20\/reduce_std\/reduce_variance\/Square",
      "beta" : 0
    },
    {
      "axis_mode" : 4,
      "bottom" : "functional_1\/instance_normalization_20\/reduce_std\/reduce_variance\/Square",
      "weights" : {

      },
      "mode" : 1,
      "nd_axis" : 1,
      "nd_mode" : true,
      "debug_info" : "functional_1\/instance_normalization_20\/reduce_std\/reduce_variance\/Mean_1",
      "use_version" : 1,
      "top" : "functional_1\/instance_normalization_20\/reduce_std\/reduce_variance\/Square1",
      "type" : "reduce",
      "name" : "functional_1\/instance_normalization_20\/reduce_std\/reduce_variance\/Mean_10"
    },
    {
      "axis_mode" : 2,
      "bottom" : "functional_1\/instance_normalization_20\/reduce_std\/reduce_variance\/Square1",
      "weights" : {

      },
      "mode" : 1,
      "nd_axis" : 2,
      "nd_mode" : true,
      "debug_info" : "functional_1\/instance_normalization_20\/reduce_std\/reduce_variance\/Mean_1",
      "use_version" : 1,
      "top" : "functional_1\/instance_normalization_20\/reduce_std\/reduce_variance\/Mean_1",
      "type" : "reduce",
      "name" : "functional_1\/instance_normalization_20\/reduce_std\/reduce_variance\/Mean_1"
    },
    {
      "bottom" : "functional_1\/instance_normalization_20\/reduce_std\/reduce_variance\/Mean_1",
      "alpha" : 1,
      "operation" : 11,
      "weights" : {

      },
      "fused_relu" : 0,
      "debug_info" : "functional_1\/instance_normalization_20\/reduce_std\/Sqrt",
      "top" : "functional_1\/instance_normalization_20\/reduce_std\/Sqrt",
      "type" : "elementwise",
      "name" : "functional_1\/instance_normalization_20\/reduce_std\/Sqrt",
      "beta" : 0
    },
    {
      "bottom" : "functional_1\/instance_normalization_20\/reduce_std\/Sqrt",
      "alpha" : 9.9999997171806854e-10,
      "operation" : 0,
      "weights" : {

      },
      "fused_relu" : 0,
      "debug_info" : "functional_1\/instance_normalization_20\/add",
      "top" : "functional_1\/instance_normalization_20\/add",
      "type" : "elementwise",
      "name" : "functional_1\/instance_normalization_20\/add",
      "beta" : 0
    },
    {
      "bottom" : "functional_1\/instance_normalization_20\/sub,functional_1\/instance_normalization_20\/add",
      "alpha" : 1,
      "operation" : 102,
      "weights" : {

      },
      "fused_relu" : 0,
      "debug_info" : "functional_1\/instance_normalization_20\/truediv",
      "nd_mode" : true,
      "top" : "functional_1\/instance_normalization_20\/truediv",
      "type" : "elementwise",
      "name" : "functional_1\/instance_normalization_20\/truediv",
      "beta" : 0
    },
    {
      "top" : "functional_1\/instance_normalization_20\/Reshape",
      "w" : 64,
      "h" : 1,
      "name" : "functional_1\/instance_normalization_20\/Reshape",
      "nd_rank" : 4,
      "type" : "load_constant",
      "k" : 1,
      "bottom" : "",
      "debug_info" : "functional_1\/instance_normalization_20\/Reshape",
      "n" : 1,
      "weights" : {

      },
      "constant_blob" : 181
    },
    {
      "bottom" : "functional_1\/instance_normalization_20\/truediv,functional_1\/instance_normalization_20\/Reshape",
      "alpha" : 1,
      "operation" : 1,
      "weights" : {

      },
      "fused_relu" : 0,
      "debug_info" : "functional_1\/instance_normalization_20\/mul",
      "nd_mode" : true,
      "top" : "functional_1\/instance_normalization_20\/mul",
      "type" : "elementwise",
      "name" : "functional_1\/instance_normalization_20\/mul",
      "beta" : 0
    },
    {
      "top" : "functional_1\/instance_normalization_20\/Reshape_1",
      "w" : 64,
      "h" : 1,
      "name" : "functional_1\/instance_normalization_20\/Reshape_1",
      "nd_rank" : 4,
      "type" : "load_constant",
      "k" : 1,
      "bottom" : "",
      "debug_info" : "functional_1\/instance_normalization_20\/Reshape_1",
      "n" : 1,
      "weights" : {

      },
      "constant_blob" : 183
    },
    {
      "bottom" : "functional_1\/instance_normalization_20\/mul,functional_1\/instance_normalization_20\/Reshape_1",
      "alpha" : 1,
      "operation" : 0,
      "weights" : {

      },
      "fused_relu" : 0,
      "debug_info" : "functional_1\/instance_normalization_20\/add_1",
      "nd_mode" : true,
      "top" : "functional_1\/instance_normalization_20\/add_1",
      "type" : "elementwise",
      "name" : "functional_1\/instance_normalization_20\/add_1",
      "beta" : 0
    },
    {
      "bottom" : "functional_1\/instance_normalization_20\/add_1",
      "weights" : {

      },
      "mode" : 0,
      "debug_info" : "functional_1\/activation_12\/Relu",
      "top" : "functional_1\/activation_12\/Relu",
      "type" : "activation",
      "name" : "functional_1\/activation_12\/Relu"
    },
    {
      "axis_h" : 2,
      "axis_w" : 1,
      "bottom" : "functional_1\/activation_12\/Relu",
      "axis_k" : 0,
      "axis_n" : 3,
      "axis_seq" : 4,
      "weights" : {

      },
      "debug_info" : "functional_1\/reflection_padding2d_23\/MirrorPad_transpose_1",
      "top" : "functional_1\/reflection_padding2d_23\/MirrorPad_transpose_1",
      "type" : "transpose",
      "name" : "functional_1\/reflection_padding2d_23\/MirrorPad_transpose_1"
    },
    {
      "name" : "functional_1\/reflection_padding2d_23\/MirrorPad_pad",
      "weights" : {

      },
      "pad_pad_mode" : 0,
      "pad_t" : 3,
      "pad_r" : 3,
      "pad_b" : 3,
      "type" : "general_padding",
      "pad_fill_mode" : 2,
      "bottom" : "functional_1\/reflection_padding2d_23\/MirrorPad_transpose_1",
      "pad_l" : 3,
      "debug_info" : "functional_1\/reflection_padding2d_23\/MirrorPad_pad",
      "pad_value" : 0,
      "top" : "functional_1\/reflection_padding2d_23\/MirrorPad_pad"
    },
    {
      "pad_r" : 0,
      "fused_relu" : 0,
      "fused_tanh" : 0,
      "debug_info" : "functional_1\/conv2d_23\/Conv2Dx",
      "pad_fill_mode" : 0,
      "pad_b" : 0,
      "pad_l" : 0,
      "top" : "functional_1\/conv2d_23\/Conv2Dx",
      "blob_weights" : 185,
      "K" : 64,
      "name" : "functional_1\/conv2d_23\/Conv2Dx",
      "has_batch_norm" : 0,
      "type" : "convolution",
      "n_groups" : 1,
      "pad_t" : 0,
      "has_biases" : 0,
      "C" : 3,
      "bottom" : "functional_1\/reflection_padding2d_23\/MirrorPad_pad",
      "weights" : {

      },
      "Nx" : 7,
      "pad_mode" : 0,
      "pad_value" : 0,
      "Ny" : 7,
      "n_parallel" : 1
    },
    {
      "axis_h" : 0,
      "axis_w" : 2,
      "bottom" : "functional_1\/conv2d_23\/Conv2Dx",
      "axis_k" : 1,
      "axis_n" : 3,
      "axis_seq" : 4,
      "weights" : {

      },
      "debug_info" : "functional_1\/conv2d_23\/Conv2D",
      "top" : "functional_1\/conv2d_23\/Conv2D",
      "type" : "transpose",
      "name" : "functional_1\/conv2d_23\/Conv2D"
    },
    {
      "top" : "functional_1\/conv2d_23\/BiasAdd\/ReadVariableOp",
      "w" : 3,
      "h" : 1,
      "name" : "functional_1\/conv2d_23\/BiasAdd\/ReadVariableOp",
      "nd_rank" : 1,
      "type" : "load_constant",
      "k" : 1,
      "bottom" : "",
      "debug_info" : "functional_1\/conv2d_23\/BiasAdd\/ReadVariableOp",
      "n" : 1,
      "weights" : {

      },
      "constant_blob" : 187
    },
    {
      "bottom" : "functional_1\/conv2d_23\/Conv2D,functional_1\/conv2d_23\/BiasAdd\/ReadVariableOp",
      "alpha" : 1,
      "operation" : 0,
      "weights" : {

      },
      "fused_relu" : 0,
      "debug_info" : "functional_1\/conv2d_23\/BiasAdd",
      "nd_mode" : true,
      "top" : "functional_1\/conv2d_23\/BiasAdd",
      "type" : "elementwise",
      "name" : "functional_1\/conv2d_23\/BiasAdd",
      "beta" : 0
    },
    {
      "bottom" : "functional_1\/conv2d_23\/BiasAdd",
      "weights" : {

      },
      "mode" : 1,
      "debug_info" : "functional_1\/activation_13\/Tanh",
      "top" : "Identity",
      "type" : "activation",
      "name" : "functional_1\/activation_13\/Tanh",
      "attributes" : {
        "is_output" : 1
      }
    }
  ]
}